program(1.0)
[buildInfo = dict<tensor<string, []>, tensor<string, []>>({{"coremlc-component-MIL", "3520.4.1"}, {"coremlc-version", "3520.5.1"}, {"coremltools-component-torch", "2.2.2"}, {"coremltools-source-dialect", "TorchScript"}, {"coremltools-version", "9.0"}})]
{
    func main<ios17>(tensor<fp16, [1, 1500, 512]> encoder_output_embeds, tensor<int32, [1, ?]> input_ids) [FlexibleShapeInformation = tuple<tuple<tensor<string, []>, dict<tensor<string, []>, tensor<int32, [?]>>>, tuple<tensor<string, []>, dict<tensor<string, []>, dict<tensor<string, []>, tensor<int32, [?]>>>>>((("DefaultShapes", {{"input_ids", [1, 1]}}), ("EnumeratedShapes", {{"encoder_output_embeds_1_1_1_1500_512_input_ids_1_1_1_1_100_", {{"encoder_output_embeds", [1, 1500, 512]}, {"input_ids", [1, 100]}}}, {"encoder_output_embeds_1_1_1_1500_512_input_ids_1_1_1_1_101_", {{"encoder_output_embeds", [1, 1500, 512]}, {"input_ids", [1, 101]}}}, {"encoder_output_embeds_1_1_1_1500_512_input_ids_1_1_1_1_102_", {{"encoder_output_embeds", [1, 1500, 512]}, {"input_ids", [1, 102]}}}, {"encoder_output_embeds_1_1_1_1500_512_input_ids_1_1_1_1_103_", {{"encoder_output_embeds", [1, 1500, 512]}, {"input_ids", [1, 103]}}}, {"encoder_output_embeds_1_1_1_1500_512_input_ids_1_1_1_1_104_", {{"encoder_output_embeds", [1, 1500, 512]}, {"input_ids", [1, 104]}}}, {"encoder_output_embeds_1_1_1_1500_512_input_ids_1_1_1_1_105_", {{"encoder_output_embeds", [1, 1500, 512]}, {"input_ids", [1, 105]}}}, {"encoder_output_embeds_1_1_1_1500_512_input_ids_1_1_1_1_106_", {{"encoder_output_embeds", [1, 1500, 512]}, {"input_ids", [1, 106]}}}, {"encoder_output_embeds_1_1_1_1500_512_input_ids_1_1_1_1_107_", {{"encoder_output_embeds", [1, 1500, 512]}, {"input_ids", [1, 107]}}}, {"encoder_output_embeds_1_1_1_1500_512_input_ids_1_1_1_1_108_", {{"encoder_output_embeds", [1, 1500, 512]}, {"input_ids", [1, 108]}}}, {"encoder_output_embeds_1_1_1_1500_512_input_ids_1_1_1_1_109_", {{"encoder_output_embeds", [1, 1500, 512]}, {"input_ids", [1, 109]}}}, {"encoder_output_embeds_1_1_1_1500_512_input_ids_1_1_1_1_10_", {{"encoder_output_embeds", [1, 1500, 512]}, {"input_ids", [1, 10]}}}, {"encoder_output_embeds_1_1_1_1500_512_input_ids_1_1_1_1_110_", {{"encoder_output_embeds", [1, 1500, 512]}, {"input_ids", [1, 110]}}}, {"encoder_output_embeds_1_1_1_1500_512_input_ids_1_1_1_1_111_", {{"encoder_output_embeds", [1, 1500, 512]}, {"input_ids", [1, 111]}}}, {"encoder_output_embeds_1_1_1_1500_512_input_ids_1_1_1_1_112_", {{"encoder_output_embeds", [1, 1500, 512]}, {"input_ids", [1, 112]}}}, {"encoder_output_embeds_1_1_1_1500_512_input_ids_1_1_1_1_113_", {{"encoder_output_embeds", [1, 1500, 512]}, {"input_ids", [1, 113]}}}, {"encoder_output_embeds_1_1_1_1500_512_input_ids_1_1_1_1_114_", {{"encoder_output_embeds", [1, 1500, 512]}, {"input_ids", [1, 114]}}}, {"encoder_output_embeds_1_1_1_1500_512_input_ids_1_1_1_1_115_", {{"encoder_output_embeds", [1, 1500, 512]}, {"input_ids", [1, 115]}}}, {"encoder_output_embeds_1_1_1_1500_512_input_ids_1_1_1_1_116_", {{"encoder_output_embeds", [1, 1500, 512]}, {"input_ids", [1, 116]}}}, {"encoder_output_embeds_1_1_1_1500_512_input_ids_1_1_1_1_117_", {{"encoder_output_embeds", [1, 1500, 512]}, {"input_ids", [1, 117]}}}, {"encoder_output_embeds_1_1_1_1500_512_input_ids_1_1_1_1_118_", {{"encoder_output_embeds", [1, 1500, 512]}, {"input_ids", [1, 118]}}}, {"encoder_output_embeds_1_1_1_1500_512_input_ids_1_1_1_1_119_", {{"encoder_output_embeds", [1, 1500, 512]}, {"input_ids", [1, 119]}}}, {"encoder_output_embeds_1_1_1_1500_512_input_ids_1_1_1_1_11_", {{"encoder_output_embeds", [1, 1500, 512]}, {"input_ids", [1, 11]}}}, {"encoder_output_embeds_1_1_1_1500_512_input_ids_1_1_1_1_120_", {{"encoder_output_embeds", [1, 1500, 512]}, {"input_ids", [1, 120]}}}, {"encoder_output_embeds_1_1_1_1500_512_input_ids_1_1_1_1_121_", {{"encoder_output_embeds", [1, 1500, 512]}, {"input_ids", [1, 121]}}}, {"encoder_output_embeds_1_1_1_1500_512_input_ids_1_1_1_1_122_", {{"encoder_output_embeds", [1, 1500, 512]}, {"input_ids", [1, 122]}}}, {"encoder_output_embeds_1_1_1_1500_512_input_ids_1_1_1_1_123_", {{"encoder_output_embeds", [1, 1500, 512]}, {"input_ids", [1, 123]}}}, {"encoder_output_embeds_1_1_1_1500_512_input_ids_1_1_1_1_124_", {{"encoder_output_embeds", [1, 1500, 512]}, {"input_ids", [1, 124]}}}, {"encoder_output_embeds_1_1_1_1500_512_input_ids_1_1_1_1_125_", {{"encoder_output_embeds", [1, 1500, 512]}, {"input_ids", [1, 125]}}}, {"encoder_output_embeds_1_1_1_1500_512_input_ids_1_1_1_1_126_", {{"encoder_output_embeds", [1, 1500, 512]}, {"input_ids", [1, 126]}}}, {"encoder_output_embeds_1_1_1_1500_512_input_ids_1_1_1_1_127_", {{"encoder_output_embeds", [1, 1500, 512]}, {"input_ids", [1, 127]}}}, {"encoder_output_embeds_1_1_1_1500_512_input_ids_1_1_1_1_128_", {{"encoder_output_embeds", [1, 1500, 512]}, {"input_ids", [1, 128]}}}, {"encoder_output_embeds_1_1_1_1500_512_input_ids_1_1_1_1_12_", {{"encoder_output_embeds", [1, 1500, 512]}, {"input_ids", [1, 12]}}}, {"encoder_output_embeds_1_1_1_1500_512_input_ids_1_1_1_1_13_", {{"encoder_output_embeds", [1, 1500, 512]}, {"input_ids", [1, 13]}}}, {"encoder_output_embeds_1_1_1_1500_512_input_ids_1_1_1_1_14_", {{"encoder_output_embeds", [1, 1500, 512]}, {"input_ids", [1, 14]}}}, {"encoder_output_embeds_1_1_1_1500_512_input_ids_1_1_1_1_15_", {{"encoder_output_embeds", [1, 1500, 512]}, {"input_ids", [1, 15]}}}, {"encoder_output_embeds_1_1_1_1500_512_input_ids_1_1_1_1_16_", {{"encoder_output_embeds", [1, 1500, 512]}, {"input_ids", [1, 16]}}}, {"encoder_output_embeds_1_1_1_1500_512_input_ids_1_1_1_1_17_", {{"encoder_output_embeds", [1, 1500, 512]}, {"input_ids", [1, 17]}}}, {"encoder_output_embeds_1_1_1_1500_512_input_ids_1_1_1_1_18_", {{"encoder_output_embeds", [1, 1500, 512]}, {"input_ids", [1, 18]}}}, {"encoder_output_embeds_1_1_1_1500_512_input_ids_1_1_1_1_19_", {{"encoder_output_embeds", [1, 1500, 512]}, {"input_ids", [1, 19]}}}, {"encoder_output_embeds_1_1_1_1500_512_input_ids_1_1_1_1_1_", {{"encoder_output_embeds", [1, 1500, 512]}, {"input_ids", [1, 1]}}}, {"encoder_output_embeds_1_1_1_1500_512_input_ids_1_1_1_1_20_", {{"encoder_output_embeds", [1, 1500, 512]}, {"input_ids", [1, 20]}}}, {"encoder_output_embeds_1_1_1_1500_512_input_ids_1_1_1_1_21_", {{"encoder_output_embeds", [1, 1500, 512]}, {"input_ids", [1, 21]}}}, {"encoder_output_embeds_1_1_1_1500_512_input_ids_1_1_1_1_22_", {{"encoder_output_embeds", [1, 1500, 512]}, {"input_ids", [1, 22]}}}, {"encoder_output_embeds_1_1_1_1500_512_input_ids_1_1_1_1_23_", {{"encoder_output_embeds", [1, 1500, 512]}, {"input_ids", [1, 23]}}}, {"encoder_output_embeds_1_1_1_1500_512_input_ids_1_1_1_1_24_", {{"encoder_output_embeds", [1, 1500, 512]}, {"input_ids", [1, 24]}}}, {"encoder_output_embeds_1_1_1_1500_512_input_ids_1_1_1_1_25_", {{"encoder_output_embeds", [1, 1500, 512]}, {"input_ids", [1, 25]}}}, {"encoder_output_embeds_1_1_1_1500_512_input_ids_1_1_1_1_26_", {{"encoder_output_embeds", [1, 1500, 512]}, {"input_ids", [1, 26]}}}, {"encoder_output_embeds_1_1_1_1500_512_input_ids_1_1_1_1_27_", {{"encoder_output_embeds", [1, 1500, 512]}, {"input_ids", [1, 27]}}}, {"encoder_output_embeds_1_1_1_1500_512_input_ids_1_1_1_1_28_", {{"encoder_output_embeds", [1, 1500, 512]}, {"input_ids", [1, 28]}}}, {"encoder_output_embeds_1_1_1_1500_512_input_ids_1_1_1_1_29_", {{"encoder_output_embeds", [1, 1500, 512]}, {"input_ids", [1, 29]}}}, {"encoder_output_embeds_1_1_1_1500_512_input_ids_1_1_1_1_2_", {{"encoder_output_embeds", [1, 1500, 512]}, {"input_ids", [1, 2]}}}, {"encoder_output_embeds_1_1_1_1500_512_input_ids_1_1_1_1_30_", {{"encoder_output_embeds", [1, 1500, 512]}, {"input_ids", [1, 30]}}}, {"encoder_output_embeds_1_1_1_1500_512_input_ids_1_1_1_1_31_", {{"encoder_output_embeds", [1, 1500, 512]}, {"input_ids", [1, 31]}}}, {"encoder_output_embeds_1_1_1_1500_512_input_ids_1_1_1_1_32_", {{"encoder_output_embeds", [1, 1500, 512]}, {"input_ids", [1, 32]}}}, {"encoder_output_embeds_1_1_1_1500_512_input_ids_1_1_1_1_33_", {{"encoder_output_embeds", [1, 1500, 512]}, {"input_ids", [1, 33]}}}, {"encoder_output_embeds_1_1_1_1500_512_input_ids_1_1_1_1_34_", {{"encoder_output_embeds", [1, 1500, 512]}, {"input_ids", [1, 34]}}}, {"encoder_output_embeds_1_1_1_1500_512_input_ids_1_1_1_1_35_", {{"encoder_output_embeds", [1, 1500, 512]}, {"input_ids", [1, 35]}}}, {"encoder_output_embeds_1_1_1_1500_512_input_ids_1_1_1_1_36_", {{"encoder_output_embeds", [1, 1500, 512]}, {"input_ids", [1, 36]}}}, {"encoder_output_embeds_1_1_1_1500_512_input_ids_1_1_1_1_37_", {{"encoder_output_embeds", [1, 1500, 512]}, {"input_ids", [1, 37]}}}, {"encoder_output_embeds_1_1_1_1500_512_input_ids_1_1_1_1_38_", {{"encoder_output_embeds", [1, 1500, 512]}, {"input_ids", [1, 38]}}}, {"encoder_output_embeds_1_1_1_1500_512_input_ids_1_1_1_1_39_", {{"encoder_output_embeds", [1, 1500, 512]}, {"input_ids", [1, 39]}}}, {"encoder_output_embeds_1_1_1_1500_512_input_ids_1_1_1_1_3_", {{"encoder_output_embeds", [1, 1500, 512]}, {"input_ids", [1, 3]}}}, {"encoder_output_embeds_1_1_1_1500_512_input_ids_1_1_1_1_40_", {{"encoder_output_embeds", [1, 1500, 512]}, {"input_ids", [1, 40]}}}, {"encoder_output_embeds_1_1_1_1500_512_input_ids_1_1_1_1_41_", {{"encoder_output_embeds", [1, 1500, 512]}, {"input_ids", [1, 41]}}}, {"encoder_output_embeds_1_1_1_1500_512_input_ids_1_1_1_1_42_", {{"encoder_output_embeds", [1, 1500, 512]}, {"input_ids", [1, 42]}}}, {"encoder_output_embeds_1_1_1_1500_512_input_ids_1_1_1_1_43_", {{"encoder_output_embeds", [1, 1500, 512]}, {"input_ids", [1, 43]}}}, {"encoder_output_embeds_1_1_1_1500_512_input_ids_1_1_1_1_44_", {{"encoder_output_embeds", [1, 1500, 512]}, {"input_ids", [1, 44]}}}, {"encoder_output_embeds_1_1_1_1500_512_input_ids_1_1_1_1_45_", {{"encoder_output_embeds", [1, 1500, 512]}, {"input_ids", [1, 45]}}}, {"encoder_output_embeds_1_1_1_1500_512_input_ids_1_1_1_1_46_", {{"encoder_output_embeds", [1, 1500, 512]}, {"input_ids", [1, 46]}}}, {"encoder_output_embeds_1_1_1_1500_512_input_ids_1_1_1_1_47_", {{"encoder_output_embeds", [1, 1500, 512]}, {"input_ids", [1, 47]}}}, {"encoder_output_embeds_1_1_1_1500_512_input_ids_1_1_1_1_48_", {{"encoder_output_embeds", [1, 1500, 512]}, {"input_ids", [1, 48]}}}, {"encoder_output_embeds_1_1_1_1500_512_input_ids_1_1_1_1_49_", {{"encoder_output_embeds", [1, 1500, 512]}, {"input_ids", [1, 49]}}}, {"encoder_output_embeds_1_1_1_1500_512_input_ids_1_1_1_1_4_", {{"encoder_output_embeds", [1, 1500, 512]}, {"input_ids", [1, 4]}}}, {"encoder_output_embeds_1_1_1_1500_512_input_ids_1_1_1_1_50_", {{"encoder_output_embeds", [1, 1500, 512]}, {"input_ids", [1, 50]}}}, {"encoder_output_embeds_1_1_1_1500_512_input_ids_1_1_1_1_51_", {{"encoder_output_embeds", [1, 1500, 512]}, {"input_ids", [1, 51]}}}, {"encoder_output_embeds_1_1_1_1500_512_input_ids_1_1_1_1_52_", {{"encoder_output_embeds", [1, 1500, 512]}, {"input_ids", [1, 52]}}}, {"encoder_output_embeds_1_1_1_1500_512_input_ids_1_1_1_1_53_", {{"encoder_output_embeds", [1, 1500, 512]}, {"input_ids", [1, 53]}}}, {"encoder_output_embeds_1_1_1_1500_512_input_ids_1_1_1_1_54_", {{"encoder_output_embeds", [1, 1500, 512]}, {"input_ids", [1, 54]}}}, {"encoder_output_embeds_1_1_1_1500_512_input_ids_1_1_1_1_55_", {{"encoder_output_embeds", [1, 1500, 512]}, {"input_ids", [1, 55]}}}, {"encoder_output_embeds_1_1_1_1500_512_input_ids_1_1_1_1_56_", {{"encoder_output_embeds", [1, 1500, 512]}, {"input_ids", [1, 56]}}}, {"encoder_output_embeds_1_1_1_1500_512_input_ids_1_1_1_1_57_", {{"encoder_output_embeds", [1, 1500, 512]}, {"input_ids", [1, 57]}}}, {"encoder_output_embeds_1_1_1_1500_512_input_ids_1_1_1_1_58_", {{"encoder_output_embeds", [1, 1500, 512]}, {"input_ids", [1, 58]}}}, {"encoder_output_embeds_1_1_1_1500_512_input_ids_1_1_1_1_59_", {{"encoder_output_embeds", [1, 1500, 512]}, {"input_ids", [1, 59]}}}, {"encoder_output_embeds_1_1_1_1500_512_input_ids_1_1_1_1_5_", {{"encoder_output_embeds", [1, 1500, 512]}, {"input_ids", [1, 5]}}}, {"encoder_output_embeds_1_1_1_1500_512_input_ids_1_1_1_1_60_", {{"encoder_output_embeds", [1, 1500, 512]}, {"input_ids", [1, 60]}}}, {"encoder_output_embeds_1_1_1_1500_512_input_ids_1_1_1_1_61_", {{"encoder_output_embeds", [1, 1500, 512]}, {"input_ids", [1, 61]}}}, {"encoder_output_embeds_1_1_1_1500_512_input_ids_1_1_1_1_62_", {{"encoder_output_embeds", [1, 1500, 512]}, {"input_ids", [1, 62]}}}, {"encoder_output_embeds_1_1_1_1500_512_input_ids_1_1_1_1_63_", {{"encoder_output_embeds", [1, 1500, 512]}, {"input_ids", [1, 63]}}}, {"encoder_output_embeds_1_1_1_1500_512_input_ids_1_1_1_1_64_", {{"encoder_output_embeds", [1, 1500, 512]}, {"input_ids", [1, 64]}}}, {"encoder_output_embeds_1_1_1_1500_512_input_ids_1_1_1_1_65_", {{"encoder_output_embeds", [1, 1500, 512]}, {"input_ids", [1, 65]}}}, {"encoder_output_embeds_1_1_1_1500_512_input_ids_1_1_1_1_66_", {{"encoder_output_embeds", [1, 1500, 512]}, {"input_ids", [1, 66]}}}, {"encoder_output_embeds_1_1_1_1500_512_input_ids_1_1_1_1_67_", {{"encoder_output_embeds", [1, 1500, 512]}, {"input_ids", [1, 67]}}}, {"encoder_output_embeds_1_1_1_1500_512_input_ids_1_1_1_1_68_", {{"encoder_output_embeds", [1, 1500, 512]}, {"input_ids", [1, 68]}}}, {"encoder_output_embeds_1_1_1_1500_512_input_ids_1_1_1_1_69_", {{"encoder_output_embeds", [1, 1500, 512]}, {"input_ids", [1, 69]}}}, {"encoder_output_embeds_1_1_1_1500_512_input_ids_1_1_1_1_6_", {{"encoder_output_embeds", [1, 1500, 512]}, {"input_ids", [1, 6]}}}, {"encoder_output_embeds_1_1_1_1500_512_input_ids_1_1_1_1_70_", {{"encoder_output_embeds", [1, 1500, 512]}, {"input_ids", [1, 70]}}}, {"encoder_output_embeds_1_1_1_1500_512_input_ids_1_1_1_1_71_", {{"encoder_output_embeds", [1, 1500, 512]}, {"input_ids", [1, 71]}}}, {"encoder_output_embeds_1_1_1_1500_512_input_ids_1_1_1_1_72_", {{"encoder_output_embeds", [1, 1500, 512]}, {"input_ids", [1, 72]}}}, {"encoder_output_embeds_1_1_1_1500_512_input_ids_1_1_1_1_73_", {{"encoder_output_embeds", [1, 1500, 512]}, {"input_ids", [1, 73]}}}, {"encoder_output_embeds_1_1_1_1500_512_input_ids_1_1_1_1_74_", {{"encoder_output_embeds", [1, 1500, 512]}, {"input_ids", [1, 74]}}}, {"encoder_output_embeds_1_1_1_1500_512_input_ids_1_1_1_1_75_", {{"encoder_output_embeds", [1, 1500, 512]}, {"input_ids", [1, 75]}}}, {"encoder_output_embeds_1_1_1_1500_512_input_ids_1_1_1_1_76_", {{"encoder_output_embeds", [1, 1500, 512]}, {"input_ids", [1, 76]}}}, {"encoder_output_embeds_1_1_1_1500_512_input_ids_1_1_1_1_77_", {{"encoder_output_embeds", [1, 1500, 512]}, {"input_ids", [1, 77]}}}, {"encoder_output_embeds_1_1_1_1500_512_input_ids_1_1_1_1_78_", {{"encoder_output_embeds", [1, 1500, 512]}, {"input_ids", [1, 78]}}}, {"encoder_output_embeds_1_1_1_1500_512_input_ids_1_1_1_1_79_", {{"encoder_output_embeds", [1, 1500, 512]}, {"input_ids", [1, 79]}}}, {"encoder_output_embeds_1_1_1_1500_512_input_ids_1_1_1_1_7_", {{"encoder_output_embeds", [1, 1500, 512]}, {"input_ids", [1, 7]}}}, {"encoder_output_embeds_1_1_1_1500_512_input_ids_1_1_1_1_80_", {{"encoder_output_embeds", [1, 1500, 512]}, {"input_ids", [1, 80]}}}, {"encoder_output_embeds_1_1_1_1500_512_input_ids_1_1_1_1_81_", {{"encoder_output_embeds", [1, 1500, 512]}, {"input_ids", [1, 81]}}}, {"encoder_output_embeds_1_1_1_1500_512_input_ids_1_1_1_1_82_", {{"encoder_output_embeds", [1, 1500, 512]}, {"input_ids", [1, 82]}}}, {"encoder_output_embeds_1_1_1_1500_512_input_ids_1_1_1_1_83_", {{"encoder_output_embeds", [1, 1500, 512]}, {"input_ids", [1, 83]}}}, {"encoder_output_embeds_1_1_1_1500_512_input_ids_1_1_1_1_84_", {{"encoder_output_embeds", [1, 1500, 512]}, {"input_ids", [1, 84]}}}, {"encoder_output_embeds_1_1_1_1500_512_input_ids_1_1_1_1_85_", {{"encoder_output_embeds", [1, 1500, 512]}, {"input_ids", [1, 85]}}}, {"encoder_output_embeds_1_1_1_1500_512_input_ids_1_1_1_1_86_", {{"encoder_output_embeds", [1, 1500, 512]}, {"input_ids", [1, 86]}}}, {"encoder_output_embeds_1_1_1_1500_512_input_ids_1_1_1_1_87_", {{"encoder_output_embeds", [1, 1500, 512]}, {"input_ids", [1, 87]}}}, {"encoder_output_embeds_1_1_1_1500_512_input_ids_1_1_1_1_88_", {{"encoder_output_embeds", [1, 1500, 512]}, {"input_ids", [1, 88]}}}, {"encoder_output_embeds_1_1_1_1500_512_input_ids_1_1_1_1_89_", {{"encoder_output_embeds", [1, 1500, 512]}, {"input_ids", [1, 89]}}}, {"encoder_output_embeds_1_1_1_1500_512_input_ids_1_1_1_1_8_", {{"encoder_output_embeds", [1, 1500, 512]}, {"input_ids", [1, 8]}}}, {"encoder_output_embeds_1_1_1_1500_512_input_ids_1_1_1_1_90_", {{"encoder_output_embeds", [1, 1500, 512]}, {"input_ids", [1, 90]}}}, {"encoder_output_embeds_1_1_1_1500_512_input_ids_1_1_1_1_91_", {{"encoder_output_embeds", [1, 1500, 512]}, {"input_ids", [1, 91]}}}, {"encoder_output_embeds_1_1_1_1500_512_input_ids_1_1_1_1_92_", {{"encoder_output_embeds", [1, 1500, 512]}, {"input_ids", [1, 92]}}}, {"encoder_output_embeds_1_1_1_1500_512_input_ids_1_1_1_1_93_", {{"encoder_output_embeds", [1, 1500, 512]}, {"input_ids", [1, 93]}}}, {"encoder_output_embeds_1_1_1_1500_512_input_ids_1_1_1_1_94_", {{"encoder_output_embeds", [1, 1500, 512]}, {"input_ids", [1, 94]}}}, {"encoder_output_embeds_1_1_1_1500_512_input_ids_1_1_1_1_95_", {{"encoder_output_embeds", [1, 1500, 512]}, {"input_ids", [1, 95]}}}, {"encoder_output_embeds_1_1_1_1500_512_input_ids_1_1_1_1_96_", {{"encoder_output_embeds", [1, 1500, 512]}, {"input_ids", [1, 96]}}}, {"encoder_output_embeds_1_1_1_1500_512_input_ids_1_1_1_1_97_", {{"encoder_output_embeds", [1, 1500, 512]}, {"input_ids", [1, 97]}}}, {"encoder_output_embeds_1_1_1_1500_512_input_ids_1_1_1_1_98_", {{"encoder_output_embeds", [1, 1500, 512]}, {"input_ids", [1, 98]}}}, {"encoder_output_embeds_1_1_1_1500_512_input_ids_1_1_1_1_99_", {{"encoder_output_embeds", [1, 1500, 512]}, {"input_ids", [1, 99]}}}, {"encoder_output_embeds_1_1_1_1500_512_input_ids_1_1_1_1_9_", {{"encoder_output_embeds", [1, 1500, 512]}, {"input_ids", [1, 9]}}}})))] {
            tensor<int32, []> var_23_batch_dims_0 = const()[name = tensor<string, []>("op_23_batch_dims_0"), val = tensor<int32, []>(0)];
            tensor<bool, []> var_23_validate_indices_0 = const()[name = tensor<string, []>("op_23_validate_indices_0"), val = tensor<bool, []>(false)];
            tensor<fp16, [51865, 512]> token_embedding_weight_to_fp16 = const()[name = tensor<string, []>("token_embedding_weight_to_fp16"), val = tensor<fp16, [51865, 512]>(BLOBFILE(path = tensor<string, []>("@model_path/weights/weight.bin"), offset = tensor<uint64, []>(64)))];
            tensor<int32, []> greater_equal_0_y_0 = const()[name = tensor<string, []>("greater_equal_0_y_0"), val = tensor<int32, []>(0)];
            tensor<bool, [1, ?]> greater_equal_0 = greater_equal(x = input_ids, y = greater_equal_0_y_0)[name = tensor<string, []>("greater_equal_0")];
            tensor<int32, []> slice_by_index_24 = const()[name = tensor<string, []>("slice_by_index_24"), val = tensor<int32, []>(51865)];
            tensor<int32, [1, ?]> add_0 = add(x = input_ids, y = slice_by_index_24)[name = tensor<string, []>("add_0")];
            tensor<int32, [1, ?]> select_0 = select(a = input_ids, b = add_0, cond = greater_equal_0)[name = tensor<string, []>("select_0")];
            tensor<int32, []> var_23_cast_fp16_axis_0 = const()[name = tensor<string, []>("op_23_cast_fp16_axis_0"), val = tensor<int32, []>(0)];
            tensor<fp16, [1, ?, 512]> var_23_cast_fp16 = gather(axis = var_23_cast_fp16_axis_0, batch_dims = var_23_batch_dims_0, indices = select_0, validate_indices = var_23_validate_indices_0, x = token_embedding_weight_to_fp16)[name = tensor<string, []>("op_23_cast_fp16")];
            tensor<int32, [2]> var_25_shape = shape(x = input_ids)[name = tensor<string, []>("op_25_shape")];
            tensor<int32, []> gather_0_axis_0 = const()[name = tensor<string, []>("gather_0_axis_0"), val = tensor<int32, []>(0)];
            tensor<int32, []> gather_0_batch_dims_0 = const()[name = tensor<string, []>("gather_0_batch_dims_0"), val = tensor<int32, []>(0)];
            tensor<bool, []> gather_0_validate_indices_0 = const()[name = tensor<string, []>("gather_0_validate_indices_0"), val = tensor<bool, []>(false)];
            tensor<string, []> var_25_shape_to_uint16_dtype_0 = const()[name = tensor<string, []>("op_25_shape_to_uint16_dtype_0"), val = tensor<string, []>("uint16")];
            tensor<uint16, []> gather_0_indices_0_to_uint16 = const()[name = tensor<string, []>("gather_0_indices_0_to_uint16"), val = tensor<uint16, []>(1)];
            tensor<uint16, [2]> var_25_shape_to_uint16 = cast(dtype = var_25_shape_to_uint16_dtype_0, x = var_25_shape)[name = tensor<string, []>("cast_64")];
            tensor<uint16, []> gather_0_cast_uint16 = gather(axis = gather_0_axis_0, batch_dims = gather_0_batch_dims_0, indices = gather_0_indices_0_to_uint16, validate_indices = gather_0_validate_indices_0, x = var_25_shape_to_uint16)[name = tensor<string, []>("gather_0_cast_uint16")];
            tensor<string, []> gather_0_cast_uint16_to_int32_dtype_0 = const()[name = tensor<string, []>("gather_0_cast_uint16_to_int32_dtype_0"), val = tensor<string, []>("int32")];
            tensor<int32, []> concat_0_values1_0 = const()[name = tensor<string, []>("concat_0_values1_0"), val = tensor<int32, []>(512)];
            tensor<int32, []> concat_0_axis_0 = const()[name = tensor<string, []>("concat_0_axis_0"), val = tensor<int32, []>(0)];
            tensor<bool, []> concat_0_interleave_0 = const()[name = tensor<string, []>("concat_0_interleave_0"), val = tensor<bool, []>(false)];
            tensor<int32, []> gather_0_cast_uint16_to_int32 = cast(dtype = gather_0_cast_uint16_to_int32_dtype_0, x = gather_0_cast_uint16)[name = tensor<string, []>("cast_63")];
            tensor<int32, [2]> concat_0 = concat(axis = concat_0_axis_0, interleave = concat_0_interleave_0, values = (gather_0_cast_uint16_to_int32, concat_0_values1_0))[name = tensor<string, []>("concat_0")];
            tensor<int32, [2]> var_31_begin_0 = const()[name = tensor<string, []>("op_31_begin_0"), val = tensor<int32, [2]>([0, 0])];
            tensor<bool, [2]> var_31_end_mask_0 = const()[name = tensor<string, []>("op_31_end_mask_0"), val = tensor<bool, [2]>([false, true])];
            tensor<fp16, [448, 512]> positional_embedding_to_fp16 = const()[name = tensor<string, []>("positional_embedding_to_fp16"), val = tensor<fp16, [448, 512]>(BLOBFILE(path = tensor<string, []>("@model_path/weights/weight.bin"), offset = tensor<uint64, []>(53109888)))];
            tensor<fp16, [?, 512]> var_31_cast_fp16 = slice_by_index(begin = var_31_begin_0, end = concat_0, end_mask = var_31_end_mask_0, x = positional_embedding_to_fp16)[name = tensor<string, []>("op_31_cast_fp16")];
            tensor<fp16, [1, ?, 512]> input_1_cast_fp16 = add(x = var_23_cast_fp16, y = var_31_cast_fp16)[name = tensor<string, []>("input_1_cast_fp16")];
            tensor<int32, []> var_44 = const()[name = tensor<string, []>("op_44"), val = tensor<int32, []>(-1)];
            tensor<int32, [1]> input_3_axes_0 = const()[name = tensor<string, []>("input_3_axes_0"), val = tensor<int32, [1]>([-1])];
            tensor<fp16, [512]> blocks_0_attn_ln_weight_to_fp16 = const()[name = tensor<string, []>("blocks_0_attn_ln_weight_to_fp16"), val = tensor<fp16, [512]>(BLOBFILE(path = tensor<string, []>("@model_path/weights/weight.bin"), offset = tensor<uint64, []>(53568704)))];
            tensor<fp16, [512]> blocks_0_attn_ln_bias_to_fp16 = const()[name = tensor<string, []>("blocks_0_attn_ln_bias_to_fp16"), val = tensor<fp16, [512]>(BLOBFILE(path = tensor<string, []>("@model_path/weights/weight.bin"), offset = tensor<uint64, []>(53569792)))];
            tensor<fp16, []> var_46_to_fp16 = const()[name = tensor<string, []>("op_46_to_fp16"), val = tensor<fp16, []>(0x1.5p-17)];
            tensor<fp16, [1, ?, 512]> input_3_cast_fp16 = layer_norm(axes = input_3_axes_0, beta = blocks_0_attn_ln_bias_to_fp16, epsilon = var_46_to_fp16, gamma = blocks_0_attn_ln_weight_to_fp16, x = input_1_cast_fp16)[name = tensor<string, []>("input_3_cast_fp16")];
            tensor<fp16, [512, 512]> blocks_0_attn_query_weight_to_fp16 = const()[name = tensor<string, []>("blocks_0_attn_query_weight_to_fp16"), val = tensor<fp16, [512, 512]>(BLOBFILE(path = tensor<string, []>("@model_path/weights/weight.bin"), offset = tensor<uint64, []>(53570880)))];
            tensor<fp16, [512]> blocks_0_attn_query_bias_to_fp16 = const()[name = tensor<string, []>("blocks_0_attn_query_bias_to_fp16"), val = tensor<fp16, [512]>(BLOBFILE(path = tensor<string, []>("@model_path/weights/weight.bin"), offset = tensor<uint64, []>(54095232)))];
            tensor<fp16, [1, ?, 512]> linear_0_cast_fp16 = linear(bias = blocks_0_attn_query_bias_to_fp16, weight = blocks_0_attn_query_weight_to_fp16, x = input_3_cast_fp16)[name = tensor<string, []>("linear_0_cast_fp16")];
            tensor<fp16, [512, 512]> blocks_0_attn_key_weight_to_fp16 = const()[name = tensor<string, []>("blocks_0_attn_key_weight_to_fp16"), val = tensor<fp16, [512, 512]>(BLOBFILE(path = tensor<string, []>("@model_path/weights/weight.bin"), offset = tensor<uint64, []>(54096320)))];
            tensor<fp16, [512]> linear_1_bias_0_to_fp16 = const()[name = tensor<string, []>("linear_1_bias_0_to_fp16"), val = tensor<fp16, [512]>(BLOBFILE(path = tensor<string, []>("@model_path/weights/weight.bin"), offset = tensor<uint64, []>(54620672)))];
            tensor<fp16, [1, ?, 512]> linear_1_cast_fp16 = linear(bias = linear_1_bias_0_to_fp16, weight = blocks_0_attn_key_weight_to_fp16, x = input_3_cast_fp16)[name = tensor<string, []>("linear_1_cast_fp16")];
            tensor<fp16, [512, 512]> blocks_0_attn_value_weight_to_fp16 = const()[name = tensor<string, []>("blocks_0_attn_value_weight_to_fp16"), val = tensor<fp16, [512, 512]>(BLOBFILE(path = tensor<string, []>("@model_path/weights/weight.bin"), offset = tensor<uint64, []>(54621760)))];
            tensor<fp16, [512]> blocks_0_attn_value_bias_to_fp16 = const()[name = tensor<string, []>("blocks_0_attn_value_bias_to_fp16"), val = tensor<fp16, [512]>(BLOBFILE(path = tensor<string, []>("@model_path/weights/weight.bin"), offset = tensor<uint64, []>(55146112)))];
            tensor<fp16, [1, ?, 512]> linear_2_cast_fp16 = linear(bias = blocks_0_attn_value_bias_to_fp16, weight = blocks_0_attn_value_weight_to_fp16, x = input_3_cast_fp16)[name = tensor<string, []>("linear_2_cast_fp16")];
            tensor<int32, [3]> var_70_shape_cast_fp16 = shape(x = linear_0_cast_fp16)[name = tensor<string, []>("op_70_shape_cast_fp16")];
            tensor<int32, []> gather_2_axis_0 = const()[name = tensor<string, []>("gather_2_axis_0"), val = tensor<int32, []>(0)];
            tensor<int32, []> gather_2_batch_dims_0 = const()[name = tensor<string, []>("gather_2_batch_dims_0"), val = tensor<int32, []>(0)];
            tensor<bool, []> gather_2_validate_indices_0 = const()[name = tensor<string, []>("gather_2_validate_indices_0"), val = tensor<bool, []>(false)];
            tensor<string, []> var_70_shape_cast_fp16_to_uint16_dtype_0 = const()[name = tensor<string, []>("op_70_shape_cast_fp16_to_uint16_dtype_0"), val = tensor<string, []>("uint16")];
            tensor<uint16, []> gather_2_indices_0_to_uint16 = const()[name = tensor<string, []>("gather_2_indices_0_to_uint16"), val = tensor<uint16, []>(1)];
            tensor<uint16, [3]> var_70_shape_cast_fp16_to_uint16 = cast(dtype = var_70_shape_cast_fp16_to_uint16_dtype_0, x = var_70_shape_cast_fp16)[name = tensor<string, []>("cast_62")];
            tensor<uint16, []> gather_2_cast_uint16 = gather(axis = gather_2_axis_0, batch_dims = gather_2_batch_dims_0, indices = gather_2_indices_0_to_uint16, validate_indices = gather_2_validate_indices_0, x = var_70_shape_cast_fp16_to_uint16)[name = tensor<string, []>("gather_2_cast_uint16")];
            tensor<string, []> gather_2_cast_uint16_to_int32_dtype_0 = const()[name = tensor<string, []>("gather_2_cast_uint16_to_int32_dtype_0"), val = tensor<string, []>("int32")];
            tensor<int32, [4]> concat_1x = const()[name = tensor<string, []>("concat_1x"), val = tensor<int32, [4]>([1, -1, 8, 64])];
            tensor<fp16, [1, ?, 8, 64]> var_80_cast_fp16 = reshape(shape = concat_1x, x = linear_0_cast_fp16)[name = tensor<string, []>("op_80_cast_fp16")];
            tensor<fp16, [1, 1, 1, 1]> const_6_to_fp16 = const()[name = tensor<string, []>("const_6_to_fp16"), val = tensor<fp16, [1, 1, 1, 1]>([[[[0x1.6ap-2]]]])];
            tensor<fp16, [1, ?, 8, 64]> q_3_cast_fp16 = mul(x = var_80_cast_fp16, y = const_6_to_fp16)[name = tensor<string, []>("q_3_cast_fp16")];
            tensor<int32, [4]> concat_2x = const()[name = tensor<string, []>("concat_2x"), val = tensor<int32, [4]>([1, -1, 8, 64])];
            tensor<fp16, [1, ?, 8, 64]> var_86_cast_fp16 = reshape(shape = concat_2x, x = linear_1_cast_fp16)[name = tensor<string, []>("op_86_cast_fp16")];
            tensor<fp16, [1, 1, 1, 1]> const_7_to_fp16 = const()[name = tensor<string, []>("const_7_to_fp16"), val = tensor<fp16, [1, 1, 1, 1]>([[[[0x1.6ap-2]]]])];
            tensor<fp16, [1, ?, 8, 64]> k_3_cast_fp16 = mul(x = var_86_cast_fp16, y = const_7_to_fp16)[name = tensor<string, []>("k_3_cast_fp16")];
            tensor<int32, [4]> concat_3x = const()[name = tensor<string, []>("concat_3x"), val = tensor<int32, [4]>([1, -1, 8, 64])];
            tensor<fp16, [1, ?, 8, 64]> var_91_cast_fp16 = reshape(shape = concat_3x, x = linear_2_cast_fp16)[name = tensor<string, []>("op_91_cast_fp16")];
            tensor<int32, [4]> var_92 = const()[name = tensor<string, []>("op_92"), val = tensor<int32, [4]>([0, 2, 1, 3])];
            tensor<bool, []> qk_1_transpose_x_0 = const()[name = tensor<string, []>("qk_1_transpose_x_0"), val = tensor<bool, []>(false)];
            tensor<bool, []> qk_1_transpose_y_0 = const()[name = tensor<string, []>("qk_1_transpose_y_0"), val = tensor<bool, []>(false)];
            tensor<int32, [4]> transpose_49_perm_0 = const()[name = tensor<string, []>("transpose_49_perm_0"), val = tensor<int32, [4]>([0, 2, -3, -1])];
            tensor<int32, [4]> transpose_50_perm_0 = const()[name = tensor<string, []>("transpose_50_perm_0"), val = tensor<int32, [4]>([0, 2, -1, -3])];
            tensor<fp16, [1, 8, 64, ?]> transpose_50 = transpose(perm = transpose_50_perm_0, x = k_3_cast_fp16)[name = tensor<string, []>("transpose_118")];
            tensor<fp16, [1, 8, ?, 64]> transpose_49 = transpose(perm = transpose_49_perm_0, x = q_3_cast_fp16)[name = tensor<string, []>("transpose_119")];
            tensor<fp16, [1, 8, ?, ?]> qk_1_cast_fp16 = matmul(transpose_x = qk_1_transpose_x_0, transpose_y = qk_1_transpose_y_0, x = transpose_49, y = transpose_50)[name = tensor<string, []>("qk_1_cast_fp16")];
            tensor<int32, []> concat_4_values1_0 = const()[name = tensor<string, []>("concat_4_values1_0"), val = tensor<int32, []>(448)];
            tensor<int32, []> concat_4_axis_0 = const()[name = tensor<string, []>("concat_4_axis_0"), val = tensor<int32, []>(0)];
            tensor<bool, []> concat_4_interleave_0 = const()[name = tensor<string, []>("concat_4_interleave_0"), val = tensor<bool, []>(false)];
            tensor<int32, []> gather_2_cast_uint16_to_int32 = cast(dtype = gather_2_cast_uint16_to_int32_dtype_0, x = gather_2_cast_uint16)[name = tensor<string, []>("cast_61")];
            tensor<int32, [2]> concat_4 = concat(axis = concat_4_axis_0, interleave = concat_4_interleave_0, values = (gather_2_cast_uint16_to_int32, concat_4_values1_0))[name = tensor<string, []>("concat_4")];
            tensor<int32, [2]> var_95_begin_0 = const()[name = tensor<string, []>("op_95_begin_0"), val = tensor<int32, [2]>([0, 0])];
            tensor<bool, [2]> var_95_end_mask_0 = const()[name = tensor<string, []>("op_95_end_mask_0"), val = tensor<bool, [2]>([false, true])];
            tensor<fp16, [448, 448]> mask_to_fp16 = const()[name = tensor<string, []>("mask_to_fp16"), val = tensor<fp16, [448, 448]>(BLOBFILE(path = tensor<string, []>("@model_path/weights/weight.bin"), offset = tensor<uint64, []>(55147200)))];
            tensor<fp16, [?, 448]> var_95_cast_fp16 = slice_by_index(begin = var_95_begin_0, end = concat_4, end_mask = var_95_end_mask_0, x = mask_to_fp16)[name = tensor<string, []>("op_95_cast_fp16")];
            tensor<int32, []> concat_5_values0_0 = const()[name = tensor<string, []>("concat_5_values0_0"), val = tensor<int32, []>(0)];
            tensor<int32, []> concat_5_axis_0 = const()[name = tensor<string, []>("concat_5_axis_0"), val = tensor<int32, []>(0)];
            tensor<bool, []> concat_5_interleave_0 = const()[name = tensor<string, []>("concat_5_interleave_0"), val = tensor<bool, []>(false)];
            tensor<int32, [2]> concat_5 = concat(axis = concat_5_axis_0, interleave = concat_5_interleave_0, values = (concat_5_values0_0, gather_2_cast_uint16_to_int32))[name = tensor<string, []>("concat_5")];
            tensor<int32, [2]> var_96_begin_0 = const()[name = tensor<string, []>("op_96_begin_0"), val = tensor<int32, [2]>([0, 0])];
            tensor<bool, [2]> var_96_end_mask_0 = const()[name = tensor<string, []>("op_96_end_mask_0"), val = tensor<bool, [2]>([true, false])];
            tensor<fp16, [?, ?]> var_96_cast_fp16 = slice_by_index(begin = var_96_begin_0, end = concat_5, end_mask = var_96_end_mask_0, x = var_95_cast_fp16)[name = tensor<string, []>("op_96_cast_fp16")];
            tensor<fp16, [1, 8, ?, ?]> input_5_cast_fp16 = add(x = qk_1_cast_fp16, y = var_96_cast_fp16)[name = tensor<string, []>("input_5_cast_fp16")];
            tensor<fp16, [1, 8, ?, ?]> w_1_cast_fp16 = softmax(axis = var_44, x = input_5_cast_fp16)[name = tensor<string, []>("w_1_cast_fp16")];
            tensor<bool, []> var_99_transpose_x_0 = const()[name = tensor<string, []>("op_99_transpose_x_0"), val = tensor<bool, []>(false)];
            tensor<bool, []> var_99_transpose_y_0 = const()[name = tensor<string, []>("op_99_transpose_y_0"), val = tensor<bool, []>(false)];
            tensor<fp16, [1, 8, ?, 64]> v_3_cast_fp16 = transpose(perm = var_92, x = var_91_cast_fp16)[name = tensor<string, []>("transpose_120")];
            tensor<fp16, [1, 8, ?, 64]> var_99_cast_fp16 = matmul(transpose_x = var_99_transpose_x_0, transpose_y = var_99_transpose_y_0, x = w_1_cast_fp16, y = v_3_cast_fp16)[name = tensor<string, []>("op_99_cast_fp16")];
            tensor<int32, [4]> var_100 = const()[name = tensor<string, []>("op_100"), val = tensor<int32, [4]>([0, 2, 1, 3])];
            tensor<int32, [3]> concat_6x = const()[name = tensor<string, []>("concat_6x"), val = tensor<int32, [3]>([1, -1, 512])];
            tensor<fp16, [1, ?, 8, 64]> var_101_cast_fp16 = transpose(perm = var_100, x = var_99_cast_fp16)[name = tensor<string, []>("transpose_117")];
            tensor<fp16, [1, ?, 512]> input_7_cast_fp16 = reshape(shape = concat_6x, x = var_101_cast_fp16)[name = tensor<string, []>("input_7_cast_fp16")];
            tensor<fp16, [512, 512]> blocks_0_attn_out_weight_to_fp16 = const()[name = tensor<string, []>("blocks_0_attn_out_weight_to_fp16"), val = tensor<fp16, [512, 512]>(BLOBFILE(path = tensor<string, []>("@model_path/weights/weight.bin"), offset = tensor<uint64, []>(55548672)))];
            tensor<fp16, [512]> blocks_0_attn_out_bias_to_fp16 = const()[name = tensor<string, []>("blocks_0_attn_out_bias_to_fp16"), val = tensor<fp16, [512]>(BLOBFILE(path = tensor<string, []>("@model_path/weights/weight.bin"), offset = tensor<uint64, []>(56073024)))];
            tensor<fp16, [1, ?, 512]> linear_3_cast_fp16 = linear(bias = blocks_0_attn_out_bias_to_fp16, weight = blocks_0_attn_out_weight_to_fp16, x = input_7_cast_fp16)[name = tensor<string, []>("linear_3_cast_fp16")];
            tensor<fp16, [1, ?, 512]> input_9_cast_fp16 = add(x = input_1_cast_fp16, y = linear_3_cast_fp16)[name = tensor<string, []>("input_9_cast_fp16")];
            tensor<int32, [1]> input_11_axes_0 = const()[name = tensor<string, []>("input_11_axes_0"), val = tensor<int32, [1]>([-1])];
            tensor<fp16, [512]> blocks_0_cross_attn_ln_weight_to_fp16 = const()[name = tensor<string, []>("blocks_0_cross_attn_ln_weight_to_fp16"), val = tensor<fp16, [512]>(BLOBFILE(path = tensor<string, []>("@model_path/weights/weight.bin"), offset = tensor<uint64, []>(56074112)))];
            tensor<fp16, [512]> blocks_0_cross_attn_ln_bias_to_fp16 = const()[name = tensor<string, []>("blocks_0_cross_attn_ln_bias_to_fp16"), val = tensor<fp16, [512]>(BLOBFILE(path = tensor<string, []>("@model_path/weights/weight.bin"), offset = tensor<uint64, []>(56075200)))];
            tensor<fp16, [1, ?, 512]> input_11_cast_fp16 = layer_norm(axes = input_11_axes_0, beta = blocks_0_cross_attn_ln_bias_to_fp16, epsilon = var_46_to_fp16, gamma = blocks_0_cross_attn_ln_weight_to_fp16, x = input_9_cast_fp16)[name = tensor<string, []>("input_11_cast_fp16")];
            tensor<fp16, [512, 512]> blocks_0_cross_attn_query_weight_to_fp16 = const()[name = tensor<string, []>("blocks_0_cross_attn_query_weight_to_fp16"), val = tensor<fp16, [512, 512]>(BLOBFILE(path = tensor<string, []>("@model_path/weights/weight.bin"), offset = tensor<uint64, []>(56076288)))];
            tensor<fp16, [512]> blocks_0_cross_attn_query_bias_to_fp16 = const()[name = tensor<string, []>("blocks_0_cross_attn_query_bias_to_fp16"), val = tensor<fp16, [512]>(BLOBFILE(path = tensor<string, []>("@model_path/weights/weight.bin"), offset = tensor<uint64, []>(56600640)))];
            tensor<fp16, [1, ?, 512]> linear_4_cast_fp16 = linear(bias = blocks_0_cross_attn_query_bias_to_fp16, weight = blocks_0_cross_attn_query_weight_to_fp16, x = input_11_cast_fp16)[name = tensor<string, []>("linear_4_cast_fp16")];
            tensor<fp16, [512, 512]> blocks_0_cross_attn_key_weight_to_fp16 = const()[name = tensor<string, []>("blocks_0_cross_attn_key_weight_to_fp16"), val = tensor<fp16, [512, 512]>(BLOBFILE(path = tensor<string, []>("@model_path/weights/weight.bin"), offset = tensor<uint64, []>(56601728)))];
            tensor<fp16, [1, 1500, 512]> linear_5_cast_fp16 = linear(bias = linear_1_bias_0_to_fp16, weight = blocks_0_cross_attn_key_weight_to_fp16, x = encoder_output_embeds)[name = tensor<string, []>("linear_5_cast_fp16")];
            tensor<fp16, [512, 512]> blocks_0_cross_attn_value_weight_to_fp16 = const()[name = tensor<string, []>("blocks_0_cross_attn_value_weight_to_fp16"), val = tensor<fp16, [512, 512]>(BLOBFILE(path = tensor<string, []>("@model_path/weights/weight.bin"), offset = tensor<uint64, []>(57126080)))];
            tensor<fp16, [512]> blocks_0_cross_attn_value_bias_to_fp16 = const()[name = tensor<string, []>("blocks_0_cross_attn_value_bias_to_fp16"), val = tensor<fp16, [512]>(BLOBFILE(path = tensor<string, []>("@model_path/weights/weight.bin"), offset = tensor<uint64, []>(57650432)))];
            tensor<fp16, [1, 1500, 512]> linear_6_cast_fp16 = linear(bias = blocks_0_cross_attn_value_bias_to_fp16, weight = blocks_0_cross_attn_value_weight_to_fp16, x = encoder_output_embeds)[name = tensor<string, []>("linear_6_cast_fp16")];
            tensor<int32, [4]> concat_7x = const()[name = tensor<string, []>("concat_7x"), val = tensor<int32, [4]>([1, -1, 8, 64])];
            tensor<fp16, [1, ?, 8, 64]> var_136_cast_fp16 = reshape(shape = concat_7x, x = linear_4_cast_fp16)[name = tensor<string, []>("op_136_cast_fp16")];
            tensor<fp16, [1, 1, 1, 1]> const_8_to_fp16 = const()[name = tensor<string, []>("const_8_to_fp16"), val = tensor<fp16, [1, 1, 1, 1]>([[[[0x1.6ap-2]]]])];
            tensor<fp16, [1, ?, 8, 64]> q_7_cast_fp16 = mul(x = var_136_cast_fp16, y = const_8_to_fp16)[name = tensor<string, []>("q_7_cast_fp16")];
            tensor<int32, [4]> var_141 = const()[name = tensor<string, []>("op_141"), val = tensor<int32, [4]>([1, 1500, 8, 64])];
            tensor<fp16, [1, 1500, 8, 64]> var_142_cast_fp16 = reshape(shape = var_141, x = linear_5_cast_fp16)[name = tensor<string, []>("op_142_cast_fp16")];
            tensor<fp16, [1, 1, 1, 1]> const_9_to_fp16 = const()[name = tensor<string, []>("const_9_to_fp16"), val = tensor<fp16, [1, 1, 1, 1]>([[[[0x1.6ap-2]]]])];
            tensor<fp16, [1, 1500, 8, 64]> k_7_cast_fp16 = mul(x = var_142_cast_fp16, y = const_9_to_fp16)[name = tensor<string, []>("k_7_cast_fp16")];
            tensor<int32, [4]> var_146 = const()[name = tensor<string, []>("op_146"), val = tensor<int32, [4]>([1, 1500, 8, 64])];
            tensor<fp16, [1, 1500, 8, 64]> var_147_cast_fp16 = reshape(shape = var_146, x = linear_6_cast_fp16)[name = tensor<string, []>("op_147_cast_fp16")];
            tensor<int32, [4]> var_148 = const()[name = tensor<string, []>("op_148"), val = tensor<int32, [4]>([0, 2, 1, 3])];
            tensor<bool, []> input_13_transpose_x_0 = const()[name = tensor<string, []>("input_13_transpose_x_0"), val = tensor<bool, []>(false)];
            tensor<bool, []> input_13_transpose_y_0 = const()[name = tensor<string, []>("input_13_transpose_y_0"), val = tensor<bool, []>(false)];
            tensor<int32, [4]> transpose_51_perm_0 = const()[name = tensor<string, []>("transpose_51_perm_0"), val = tensor<int32, [4]>([0, 2, -3, -1])];
            tensor<int32, [4]> transpose_52_perm_0 = const()[name = tensor<string, []>("transpose_52_perm_0"), val = tensor<int32, [4]>([0, 2, -1, -3])];
            tensor<fp16, [1, 8, 64, 1500]> transpose_52 = transpose(perm = transpose_52_perm_0, x = k_7_cast_fp16)[name = tensor<string, []>("transpose_114")];
            tensor<fp16, [1, 8, ?, 64]> transpose_51 = transpose(perm = transpose_51_perm_0, x = q_7_cast_fp16)[name = tensor<string, []>("transpose_115")];
            tensor<fp16, [1, 8, ?, 1500]> input_13_cast_fp16 = matmul(transpose_x = input_13_transpose_x_0, transpose_y = input_13_transpose_y_0, x = transpose_51, y = transpose_52)[name = tensor<string, []>("input_13_cast_fp16")];
            tensor<fp16, [1, 8, ?, 1500]> w_3_cast_fp16 = softmax(axis = var_44, x = input_13_cast_fp16)[name = tensor<string, []>("w_3_cast_fp16")];
            tensor<bool, []> var_152_transpose_x_0 = const()[name = tensor<string, []>("op_152_transpose_x_0"), val = tensor<bool, []>(false)];
            tensor<bool, []> var_152_transpose_y_0 = const()[name = tensor<string, []>("op_152_transpose_y_0"), val = tensor<bool, []>(false)];
            tensor<fp16, [1, 8, 1500, 64]> v_7_cast_fp16 = transpose(perm = var_148, x = var_147_cast_fp16)[name = tensor<string, []>("transpose_116")];
            tensor<fp16, [1, 8, ?, 64]> var_152_cast_fp16 = matmul(transpose_x = var_152_transpose_x_0, transpose_y = var_152_transpose_y_0, x = w_3_cast_fp16, y = v_7_cast_fp16)[name = tensor<string, []>("op_152_cast_fp16")];
            tensor<int32, [4]> var_153 = const()[name = tensor<string, []>("op_153"), val = tensor<int32, [4]>([0, 2, 1, 3])];
            tensor<int32, [3]> concat_8x = const()[name = tensor<string, []>("concat_8x"), val = tensor<int32, [3]>([1, -1, 512])];
            tensor<fp16, [1, ?, 8, 64]> var_154_cast_fp16 = transpose(perm = var_153, x = var_152_cast_fp16)[name = tensor<string, []>("transpose_113")];
            tensor<fp16, [1, ?, 512]> input_15_cast_fp16 = reshape(shape = concat_8x, x = var_154_cast_fp16)[name = tensor<string, []>("input_15_cast_fp16")];
            tensor<fp16, [512, 512]> blocks_0_cross_attn_out_weight_to_fp16 = const()[name = tensor<string, []>("blocks_0_cross_attn_out_weight_to_fp16"), val = tensor<fp16, [512, 512]>(BLOBFILE(path = tensor<string, []>("@model_path/weights/weight.bin"), offset = tensor<uint64, []>(57651520)))];
            tensor<fp16, [512]> blocks_0_cross_attn_out_bias_to_fp16 = const()[name = tensor<string, []>("blocks_0_cross_attn_out_bias_to_fp16"), val = tensor<fp16, [512]>(BLOBFILE(path = tensor<string, []>("@model_path/weights/weight.bin"), offset = tensor<uint64, []>(58175872)))];
            tensor<fp16, [1, ?, 512]> linear_7_cast_fp16 = linear(bias = blocks_0_cross_attn_out_bias_to_fp16, weight = blocks_0_cross_attn_out_weight_to_fp16, x = input_15_cast_fp16)[name = tensor<string, []>("linear_7_cast_fp16")];
            tensor<fp16, [1, ?, 512]> input_17_cast_fp16 = add(x = input_9_cast_fp16, y = linear_7_cast_fp16)[name = tensor<string, []>("input_17_cast_fp16")];
            tensor<int32, [1]> input_19_axes_0 = const()[name = tensor<string, []>("input_19_axes_0"), val = tensor<int32, [1]>([-1])];
            tensor<fp16, [512]> blocks_0_mlp_ln_weight_to_fp16 = const()[name = tensor<string, []>("blocks_0_mlp_ln_weight_to_fp16"), val = tensor<fp16, [512]>(BLOBFILE(path = tensor<string, []>("@model_path/weights/weight.bin"), offset = tensor<uint64, []>(58176960)))];
            tensor<fp16, [512]> blocks_0_mlp_ln_bias_to_fp16 = const()[name = tensor<string, []>("blocks_0_mlp_ln_bias_to_fp16"), val = tensor<fp16, [512]>(BLOBFILE(path = tensor<string, []>("@model_path/weights/weight.bin"), offset = tensor<uint64, []>(58178048)))];
            tensor<fp16, [1, ?, 512]> input_19_cast_fp16 = layer_norm(axes = input_19_axes_0, beta = blocks_0_mlp_ln_bias_to_fp16, epsilon = var_46_to_fp16, gamma = blocks_0_mlp_ln_weight_to_fp16, x = input_17_cast_fp16)[name = tensor<string, []>("input_19_cast_fp16")];
            tensor<fp16, [2048, 512]> blocks_0_mlp_0_weight_to_fp16 = const()[name = tensor<string, []>("blocks_0_mlp_0_weight_to_fp16"), val = tensor<fp16, [2048, 512]>(BLOBFILE(path = tensor<string, []>("@model_path/weights/weight.bin"), offset = tensor<uint64, []>(58179136)))];
            tensor<fp16, [2048]> blocks_0_mlp_0_bias_to_fp16 = const()[name = tensor<string, []>("blocks_0_mlp_0_bias_to_fp16"), val = tensor<fp16, [2048]>(BLOBFILE(path = tensor<string, []>("@model_path/weights/weight.bin"), offset = tensor<uint64, []>(60276352)))];
            tensor<fp16, [1, ?, 2048]> linear_8_cast_fp16 = linear(bias = blocks_0_mlp_0_bias_to_fp16, weight = blocks_0_mlp_0_weight_to_fp16, x = input_19_cast_fp16)[name = tensor<string, []>("linear_8_cast_fp16")];
            tensor<string, []> input_23_mode_0 = const()[name = tensor<string, []>("input_23_mode_0"), val = tensor<string, []>("EXACT")];
            tensor<fp16, [1, ?, 2048]> input_23_cast_fp16 = gelu(mode = input_23_mode_0, x = linear_8_cast_fp16)[name = tensor<string, []>("input_23_cast_fp16")];
            tensor<fp16, [512, 2048]> blocks_0_mlp_2_weight_to_fp16 = const()[name = tensor<string, []>("blocks_0_mlp_2_weight_to_fp16"), val = tensor<fp16, [512, 2048]>(BLOBFILE(path = tensor<string, []>("@model_path/weights/weight.bin"), offset = tensor<uint64, []>(60280512)))];
            tensor<fp16, [512]> blocks_0_mlp_2_bias_to_fp16 = const()[name = tensor<string, []>("blocks_0_mlp_2_bias_to_fp16"), val = tensor<fp16, [512]>(BLOBFILE(path = tensor<string, []>("@model_path/weights/weight.bin"), offset = tensor<uint64, []>(62377728)))];
            tensor<fp16, [1, ?, 512]> linear_9_cast_fp16 = linear(bias = blocks_0_mlp_2_bias_to_fp16, weight = blocks_0_mlp_2_weight_to_fp16, x = input_23_cast_fp16)[name = tensor<string, []>("linear_9_cast_fp16")];
            tensor<fp16, [1, ?, 512]> input_25_cast_fp16 = add(x = input_17_cast_fp16, y = linear_9_cast_fp16)[name = tensor<string, []>("input_25_cast_fp16")];
            tensor<int32, []> var_186 = const()[name = tensor<string, []>("op_186"), val = tensor<int32, []>(-1)];
            tensor<int32, [1]> input_27_axes_0 = const()[name = tensor<string, []>("input_27_axes_0"), val = tensor<int32, [1]>([-1])];
            tensor<fp16, [512]> blocks_1_attn_ln_weight_to_fp16 = const()[name = tensor<string, []>("blocks_1_attn_ln_weight_to_fp16"), val = tensor<fp16, [512]>(BLOBFILE(path = tensor<string, []>("@model_path/weights/weight.bin"), offset = tensor<uint64, []>(62378816)))];
            tensor<fp16, [512]> blocks_1_attn_ln_bias_to_fp16 = const()[name = tensor<string, []>("blocks_1_attn_ln_bias_to_fp16"), val = tensor<fp16, [512]>(BLOBFILE(path = tensor<string, []>("@model_path/weights/weight.bin"), offset = tensor<uint64, []>(62379904)))];
            tensor<fp16, []> var_188_to_fp16 = const()[name = tensor<string, []>("op_188_to_fp16"), val = tensor<fp16, []>(0x1.5p-17)];
            tensor<fp16, [1, ?, 512]> input_27_cast_fp16 = layer_norm(axes = input_27_axes_0, beta = blocks_1_attn_ln_bias_to_fp16, epsilon = var_188_to_fp16, gamma = blocks_1_attn_ln_weight_to_fp16, x = input_25_cast_fp16)[name = tensor<string, []>("input_27_cast_fp16")];
            tensor<fp16, [512, 512]> blocks_1_attn_query_weight_to_fp16 = const()[name = tensor<string, []>("blocks_1_attn_query_weight_to_fp16"), val = tensor<fp16, [512, 512]>(BLOBFILE(path = tensor<string, []>("@model_path/weights/weight.bin"), offset = tensor<uint64, []>(62380992)))];
            tensor<fp16, [512]> blocks_1_attn_query_bias_to_fp16 = const()[name = tensor<string, []>("blocks_1_attn_query_bias_to_fp16"), val = tensor<fp16, [512]>(BLOBFILE(path = tensor<string, []>("@model_path/weights/weight.bin"), offset = tensor<uint64, []>(62905344)))];
            tensor<fp16, [1, ?, 512]> linear_10_cast_fp16 = linear(bias = blocks_1_attn_query_bias_to_fp16, weight = blocks_1_attn_query_weight_to_fp16, x = input_27_cast_fp16)[name = tensor<string, []>("linear_10_cast_fp16")];
            tensor<fp16, [512, 512]> blocks_1_attn_key_weight_to_fp16 = const()[name = tensor<string, []>("blocks_1_attn_key_weight_to_fp16"), val = tensor<fp16, [512, 512]>(BLOBFILE(path = tensor<string, []>("@model_path/weights/weight.bin"), offset = tensor<uint64, []>(62906432)))];
            tensor<fp16, [1, ?, 512]> linear_11_cast_fp16 = linear(bias = linear_1_bias_0_to_fp16, weight = blocks_1_attn_key_weight_to_fp16, x = input_27_cast_fp16)[name = tensor<string, []>("linear_11_cast_fp16")];
            tensor<fp16, [512, 512]> blocks_1_attn_value_weight_to_fp16 = const()[name = tensor<string, []>("blocks_1_attn_value_weight_to_fp16"), val = tensor<fp16, [512, 512]>(BLOBFILE(path = tensor<string, []>("@model_path/weights/weight.bin"), offset = tensor<uint64, []>(63430784)))];
            tensor<fp16, [512]> blocks_1_attn_value_bias_to_fp16 = const()[name = tensor<string, []>("blocks_1_attn_value_bias_to_fp16"), val = tensor<fp16, [512]>(BLOBFILE(path = tensor<string, []>("@model_path/weights/weight.bin"), offset = tensor<uint64, []>(63955136)))];
            tensor<fp16, [1, ?, 512]> linear_12_cast_fp16 = linear(bias = blocks_1_attn_value_bias_to_fp16, weight = blocks_1_attn_value_weight_to_fp16, x = input_27_cast_fp16)[name = tensor<string, []>("linear_12_cast_fp16")];
            tensor<int32, [3]> var_212_shape_cast_fp16 = shape(x = linear_10_cast_fp16)[name = tensor<string, []>("op_212_shape_cast_fp16")];
            tensor<int32, []> gather_9_axis_0 = const()[name = tensor<string, []>("gather_9_axis_0"), val = tensor<int32, []>(0)];
            tensor<int32, []> gather_9_batch_dims_0 = const()[name = tensor<string, []>("gather_9_batch_dims_0"), val = tensor<int32, []>(0)];
            tensor<bool, []> gather_9_validate_indices_0 = const()[name = tensor<string, []>("gather_9_validate_indices_0"), val = tensor<bool, []>(false)];
            tensor<string, []> var_212_shape_cast_fp16_to_uint16_dtype_0 = const()[name = tensor<string, []>("op_212_shape_cast_fp16_to_uint16_dtype_0"), val = tensor<string, []>("uint16")];
            tensor<uint16, []> gather_9_indices_0_to_uint16 = const()[name = tensor<string, []>("gather_9_indices_0_to_uint16"), val = tensor<uint16, []>(1)];
            tensor<uint16, [3]> var_212_shape_cast_fp16_to_uint16 = cast(dtype = var_212_shape_cast_fp16_to_uint16_dtype_0, x = var_212_shape_cast_fp16)[name = tensor<string, []>("cast_60")];
            tensor<uint16, []> gather_9_cast_uint16 = gather(axis = gather_9_axis_0, batch_dims = gather_9_batch_dims_0, indices = gather_9_indices_0_to_uint16, validate_indices = gather_9_validate_indices_0, x = var_212_shape_cast_fp16_to_uint16)[name = tensor<string, []>("gather_9_cast_uint16")];
            tensor<string, []> gather_9_cast_uint16_to_int32_dtype_0 = const()[name = tensor<string, []>("gather_9_cast_uint16_to_int32_dtype_0"), val = tensor<string, []>("int32")];
            tensor<int32, [4]> concat_9x = const()[name = tensor<string, []>("concat_9x"), val = tensor<int32, [4]>([1, -1, 8, 64])];
            tensor<fp16, [1, ?, 8, 64]> var_222_cast_fp16 = reshape(shape = concat_9x, x = linear_10_cast_fp16)[name = tensor<string, []>("op_222_cast_fp16")];
            tensor<fp16, [1, 1, 1, 1]> const_10_to_fp16 = const()[name = tensor<string, []>("const_10_to_fp16"), val = tensor<fp16, [1, 1, 1, 1]>([[[[0x1.6ap-2]]]])];
            tensor<fp16, [1, ?, 8, 64]> q_11_cast_fp16 = mul(x = var_222_cast_fp16, y = const_10_to_fp16)[name = tensor<string, []>("q_11_cast_fp16")];
            tensor<int32, [4]> concat_10x = const()[name = tensor<string, []>("concat_10x"), val = tensor<int32, [4]>([1, -1, 8, 64])];
            tensor<fp16, [1, ?, 8, 64]> var_228_cast_fp16 = reshape(shape = concat_10x, x = linear_11_cast_fp16)[name = tensor<string, []>("op_228_cast_fp16")];
            tensor<fp16, [1, 1, 1, 1]> const_11_to_fp16 = const()[name = tensor<string, []>("const_11_to_fp16"), val = tensor<fp16, [1, 1, 1, 1]>([[[[0x1.6ap-2]]]])];
            tensor<fp16, [1, ?, 8, 64]> k_11_cast_fp16 = mul(x = var_228_cast_fp16, y = const_11_to_fp16)[name = tensor<string, []>("k_11_cast_fp16")];
            tensor<int32, [4]> concat_11x = const()[name = tensor<string, []>("concat_11x"), val = tensor<int32, [4]>([1, -1, 8, 64])];
            tensor<fp16, [1, ?, 8, 64]> var_233_cast_fp16 = reshape(shape = concat_11x, x = linear_12_cast_fp16)[name = tensor<string, []>("op_233_cast_fp16")];
            tensor<int32, [4]> var_234 = const()[name = tensor<string, []>("op_234"), val = tensor<int32, [4]>([0, 2, 1, 3])];
            tensor<bool, []> qk_3_transpose_x_0 = const()[name = tensor<string, []>("qk_3_transpose_x_0"), val = tensor<bool, []>(false)];
            tensor<bool, []> qk_3_transpose_y_0 = const()[name = tensor<string, []>("qk_3_transpose_y_0"), val = tensor<bool, []>(false)];
            tensor<int32, [4]> transpose_53_perm_0 = const()[name = tensor<string, []>("transpose_53_perm_0"), val = tensor<int32, [4]>([0, 2, -3, -1])];
            tensor<int32, [4]> transpose_54_perm_0 = const()[name = tensor<string, []>("transpose_54_perm_0"), val = tensor<int32, [4]>([0, 2, -1, -3])];
            tensor<fp16, [1, 8, 64, ?]> transpose_54 = transpose(perm = transpose_54_perm_0, x = k_11_cast_fp16)[name = tensor<string, []>("transpose_110")];
            tensor<fp16, [1, 8, ?, 64]> transpose_53 = transpose(perm = transpose_53_perm_0, x = q_11_cast_fp16)[name = tensor<string, []>("transpose_111")];
            tensor<fp16, [1, 8, ?, ?]> qk_3_cast_fp16 = matmul(transpose_x = qk_3_transpose_x_0, transpose_y = qk_3_transpose_y_0, x = transpose_53, y = transpose_54)[name = tensor<string, []>("qk_3_cast_fp16")];
            tensor<int32, []> concat_12_values1_0 = const()[name = tensor<string, []>("concat_12_values1_0"), val = tensor<int32, []>(448)];
            tensor<int32, []> concat_12_axis_0 = const()[name = tensor<string, []>("concat_12_axis_0"), val = tensor<int32, []>(0)];
            tensor<bool, []> concat_12_interleave_0 = const()[name = tensor<string, []>("concat_12_interleave_0"), val = tensor<bool, []>(false)];
            tensor<int32, []> gather_9_cast_uint16_to_int32 = cast(dtype = gather_9_cast_uint16_to_int32_dtype_0, x = gather_9_cast_uint16)[name = tensor<string, []>("cast_59")];
            tensor<int32, [2]> concat_12 = concat(axis = concat_12_axis_0, interleave = concat_12_interleave_0, values = (gather_9_cast_uint16_to_int32, concat_12_values1_0))[name = tensor<string, []>("concat_12")];
            tensor<int32, [2]> var_237_begin_0 = const()[name = tensor<string, []>("op_237_begin_0"), val = tensor<int32, [2]>([0, 0])];
            tensor<bool, [2]> var_237_end_mask_0 = const()[name = tensor<string, []>("op_237_end_mask_0"), val = tensor<bool, [2]>([false, true])];
            tensor<fp16, [?, 448]> var_237_cast_fp16 = slice_by_index(begin = var_237_begin_0, end = concat_12, end_mask = var_237_end_mask_0, x = mask_to_fp16)[name = tensor<string, []>("op_237_cast_fp16")];
            tensor<int32, []> concat_13_values0_0 = const()[name = tensor<string, []>("concat_13_values0_0"), val = tensor<int32, []>(0)];
            tensor<int32, []> concat_13_axis_0 = const()[name = tensor<string, []>("concat_13_axis_0"), val = tensor<int32, []>(0)];
            tensor<bool, []> concat_13_interleave_0 = const()[name = tensor<string, []>("concat_13_interleave_0"), val = tensor<bool, []>(false)];
            tensor<int32, [2]> concat_13 = concat(axis = concat_13_axis_0, interleave = concat_13_interleave_0, values = (concat_13_values0_0, gather_9_cast_uint16_to_int32))[name = tensor<string, []>("concat_13")];
            tensor<int32, [2]> var_238_begin_0 = const()[name = tensor<string, []>("op_238_begin_0"), val = tensor<int32, [2]>([0, 0])];
            tensor<bool, [2]> var_238_end_mask_0 = const()[name = tensor<string, []>("op_238_end_mask_0"), val = tensor<bool, [2]>([true, false])];
            tensor<fp16, [?, ?]> var_238_cast_fp16 = slice_by_index(begin = var_238_begin_0, end = concat_13, end_mask = var_238_end_mask_0, x = var_237_cast_fp16)[name = tensor<string, []>("op_238_cast_fp16")];
            tensor<fp16, [1, 8, ?, ?]> input_29_cast_fp16 = add(x = qk_3_cast_fp16, y = var_238_cast_fp16)[name = tensor<string, []>("input_29_cast_fp16")];
            tensor<fp16, [1, 8, ?, ?]> w_5_cast_fp16 = softmax(axis = var_186, x = input_29_cast_fp16)[name = tensor<string, []>("w_5_cast_fp16")];
            tensor<bool, []> var_241_transpose_x_0 = const()[name = tensor<string, []>("op_241_transpose_x_0"), val = tensor<bool, []>(false)];
            tensor<bool, []> var_241_transpose_y_0 = const()[name = tensor<string, []>("op_241_transpose_y_0"), val = tensor<bool, []>(false)];
            tensor<fp16, [1, 8, ?, 64]> v_11_cast_fp16 = transpose(perm = var_234, x = var_233_cast_fp16)[name = tensor<string, []>("transpose_112")];
            tensor<fp16, [1, 8, ?, 64]> var_241_cast_fp16 = matmul(transpose_x = var_241_transpose_x_0, transpose_y = var_241_transpose_y_0, x = w_5_cast_fp16, y = v_11_cast_fp16)[name = tensor<string, []>("op_241_cast_fp16")];
            tensor<int32, [4]> var_242 = const()[name = tensor<string, []>("op_242"), val = tensor<int32, [4]>([0, 2, 1, 3])];
            tensor<int32, [3]> concat_14x = const()[name = tensor<string, []>("concat_14x"), val = tensor<int32, [3]>([1, -1, 512])];
            tensor<fp16, [1, ?, 8, 64]> var_243_cast_fp16 = transpose(perm = var_242, x = var_241_cast_fp16)[name = tensor<string, []>("transpose_109")];
            tensor<fp16, [1, ?, 512]> input_31_cast_fp16 = reshape(shape = concat_14x, x = var_243_cast_fp16)[name = tensor<string, []>("input_31_cast_fp16")];
            tensor<fp16, [512, 512]> blocks_1_attn_out_weight_to_fp16 = const()[name = tensor<string, []>("blocks_1_attn_out_weight_to_fp16"), val = tensor<fp16, [512, 512]>(BLOBFILE(path = tensor<string, []>("@model_path/weights/weight.bin"), offset = tensor<uint64, []>(63956224)))];
            tensor<fp16, [512]> blocks_1_attn_out_bias_to_fp16 = const()[name = tensor<string, []>("blocks_1_attn_out_bias_to_fp16"), val = tensor<fp16, [512]>(BLOBFILE(path = tensor<string, []>("@model_path/weights/weight.bin"), offset = tensor<uint64, []>(64480576)))];
            tensor<fp16, [1, ?, 512]> linear_13_cast_fp16 = linear(bias = blocks_1_attn_out_bias_to_fp16, weight = blocks_1_attn_out_weight_to_fp16, x = input_31_cast_fp16)[name = tensor<string, []>("linear_13_cast_fp16")];
            tensor<fp16, [1, ?, 512]> input_33_cast_fp16 = add(x = input_25_cast_fp16, y = linear_13_cast_fp16)[name = tensor<string, []>("input_33_cast_fp16")];
            tensor<int32, [1]> input_35_axes_0 = const()[name = tensor<string, []>("input_35_axes_0"), val = tensor<int32, [1]>([-1])];
            tensor<fp16, [512]> blocks_1_cross_attn_ln_weight_to_fp16 = const()[name = tensor<string, []>("blocks_1_cross_attn_ln_weight_to_fp16"), val = tensor<fp16, [512]>(BLOBFILE(path = tensor<string, []>("@model_path/weights/weight.bin"), offset = tensor<uint64, []>(64481664)))];
            tensor<fp16, [512]> blocks_1_cross_attn_ln_bias_to_fp16 = const()[name = tensor<string, []>("blocks_1_cross_attn_ln_bias_to_fp16"), val = tensor<fp16, [512]>(BLOBFILE(path = tensor<string, []>("@model_path/weights/weight.bin"), offset = tensor<uint64, []>(64482752)))];
            tensor<fp16, [1, ?, 512]> input_35_cast_fp16 = layer_norm(axes = input_35_axes_0, beta = blocks_1_cross_attn_ln_bias_to_fp16, epsilon = var_188_to_fp16, gamma = blocks_1_cross_attn_ln_weight_to_fp16, x = input_33_cast_fp16)[name = tensor<string, []>("input_35_cast_fp16")];
            tensor<fp16, [512, 512]> blocks_1_cross_attn_query_weight_to_fp16 = const()[name = tensor<string, []>("blocks_1_cross_attn_query_weight_to_fp16"), val = tensor<fp16, [512, 512]>(BLOBFILE(path = tensor<string, []>("@model_path/weights/weight.bin"), offset = tensor<uint64, []>(64483840)))];
            tensor<fp16, [512]> blocks_1_cross_attn_query_bias_to_fp16 = const()[name = tensor<string, []>("blocks_1_cross_attn_query_bias_to_fp16"), val = tensor<fp16, [512]>(BLOBFILE(path = tensor<string, []>("@model_path/weights/weight.bin"), offset = tensor<uint64, []>(65008192)))];
            tensor<fp16, [1, ?, 512]> linear_14_cast_fp16 = linear(bias = blocks_1_cross_attn_query_bias_to_fp16, weight = blocks_1_cross_attn_query_weight_to_fp16, x = input_35_cast_fp16)[name = tensor<string, []>("linear_14_cast_fp16")];
            tensor<fp16, [512, 512]> blocks_1_cross_attn_key_weight_to_fp16 = const()[name = tensor<string, []>("blocks_1_cross_attn_key_weight_to_fp16"), val = tensor<fp16, [512, 512]>(BLOBFILE(path = tensor<string, []>("@model_path/weights/weight.bin"), offset = tensor<uint64, []>(65009280)))];
            tensor<fp16, [1, 1500, 512]> linear_15_cast_fp16 = linear(bias = linear_1_bias_0_to_fp16, weight = blocks_1_cross_attn_key_weight_to_fp16, x = encoder_output_embeds)[name = tensor<string, []>("linear_15_cast_fp16")];
            tensor<fp16, [512, 512]> blocks_1_cross_attn_value_weight_to_fp16 = const()[name = tensor<string, []>("blocks_1_cross_attn_value_weight_to_fp16"), val = tensor<fp16, [512, 512]>(BLOBFILE(path = tensor<string, []>("@model_path/weights/weight.bin"), offset = tensor<uint64, []>(65533632)))];
            tensor<fp16, [512]> blocks_1_cross_attn_value_bias_to_fp16 = const()[name = tensor<string, []>("blocks_1_cross_attn_value_bias_to_fp16"), val = tensor<fp16, [512]>(BLOBFILE(path = tensor<string, []>("@model_path/weights/weight.bin"), offset = tensor<uint64, []>(66057984)))];
            tensor<fp16, [1, 1500, 512]> linear_16_cast_fp16 = linear(bias = blocks_1_cross_attn_value_bias_to_fp16, weight = blocks_1_cross_attn_value_weight_to_fp16, x = encoder_output_embeds)[name = tensor<string, []>("linear_16_cast_fp16")];
            tensor<int32, [4]> concat_15x = const()[name = tensor<string, []>("concat_15x"), val = tensor<int32, [4]>([1, -1, 8, 64])];
            tensor<fp16, [1, ?, 8, 64]> var_275_cast_fp16 = reshape(shape = concat_15x, x = linear_14_cast_fp16)[name = tensor<string, []>("op_275_cast_fp16")];
            tensor<fp16, [1, 1, 1, 1]> const_12_to_fp16 = const()[name = tensor<string, []>("const_12_to_fp16"), val = tensor<fp16, [1, 1, 1, 1]>([[[[0x1.6ap-2]]]])];
            tensor<fp16, [1, ?, 8, 64]> q_15_cast_fp16 = mul(x = var_275_cast_fp16, y = const_12_to_fp16)[name = tensor<string, []>("q_15_cast_fp16")];
            tensor<int32, [4]> var_280 = const()[name = tensor<string, []>("op_280"), val = tensor<int32, [4]>([1, 1500, 8, 64])];
            tensor<fp16, [1, 1500, 8, 64]> var_281_cast_fp16 = reshape(shape = var_280, x = linear_15_cast_fp16)[name = tensor<string, []>("op_281_cast_fp16")];
            tensor<fp16, [1, 1, 1, 1]> const_13_to_fp16 = const()[name = tensor<string, []>("const_13_to_fp16"), val = tensor<fp16, [1, 1, 1, 1]>([[[[0x1.6ap-2]]]])];
            tensor<fp16, [1, 1500, 8, 64]> k_15_cast_fp16 = mul(x = var_281_cast_fp16, y = const_13_to_fp16)[name = tensor<string, []>("k_15_cast_fp16")];
            tensor<int32, [4]> var_285 = const()[name = tensor<string, []>("op_285"), val = tensor<int32, [4]>([1, 1500, 8, 64])];
            tensor<fp16, [1, 1500, 8, 64]> var_286_cast_fp16 = reshape(shape = var_285, x = linear_16_cast_fp16)[name = tensor<string, []>("op_286_cast_fp16")];
            tensor<int32, [4]> var_287 = const()[name = tensor<string, []>("op_287"), val = tensor<int32, [4]>([0, 2, 1, 3])];
            tensor<bool, []> input_37_transpose_x_0 = const()[name = tensor<string, []>("input_37_transpose_x_0"), val = tensor<bool, []>(false)];
            tensor<bool, []> input_37_transpose_y_0 = const()[name = tensor<string, []>("input_37_transpose_y_0"), val = tensor<bool, []>(false)];
            tensor<int32, [4]> transpose_55_perm_0 = const()[name = tensor<string, []>("transpose_55_perm_0"), val = tensor<int32, [4]>([0, 2, -3, -1])];
            tensor<int32, [4]> transpose_56_perm_0 = const()[name = tensor<string, []>("transpose_56_perm_0"), val = tensor<int32, [4]>([0, 2, -1, -3])];
            tensor<fp16, [1, 8, 64, 1500]> transpose_56 = transpose(perm = transpose_56_perm_0, x = k_15_cast_fp16)[name = tensor<string, []>("transpose_106")];
            tensor<fp16, [1, 8, ?, 64]> transpose_55 = transpose(perm = transpose_55_perm_0, x = q_15_cast_fp16)[name = tensor<string, []>("transpose_107")];
            tensor<fp16, [1, 8, ?, 1500]> input_37_cast_fp16 = matmul(transpose_x = input_37_transpose_x_0, transpose_y = input_37_transpose_y_0, x = transpose_55, y = transpose_56)[name = tensor<string, []>("input_37_cast_fp16")];
            tensor<fp16, [1, 8, ?, 1500]> w_7_cast_fp16 = softmax(axis = var_186, x = input_37_cast_fp16)[name = tensor<string, []>("w_7_cast_fp16")];
            tensor<bool, []> var_291_transpose_x_0 = const()[name = tensor<string, []>("op_291_transpose_x_0"), val = tensor<bool, []>(false)];
            tensor<bool, []> var_291_transpose_y_0 = const()[name = tensor<string, []>("op_291_transpose_y_0"), val = tensor<bool, []>(false)];
            tensor<fp16, [1, 8, 1500, 64]> v_15_cast_fp16 = transpose(perm = var_287, x = var_286_cast_fp16)[name = tensor<string, []>("transpose_108")];
            tensor<fp16, [1, 8, ?, 64]> var_291_cast_fp16 = matmul(transpose_x = var_291_transpose_x_0, transpose_y = var_291_transpose_y_0, x = w_7_cast_fp16, y = v_15_cast_fp16)[name = tensor<string, []>("op_291_cast_fp16")];
            tensor<int32, [4]> var_292 = const()[name = tensor<string, []>("op_292"), val = tensor<int32, [4]>([0, 2, 1, 3])];
            tensor<int32, [3]> concat_16x = const()[name = tensor<string, []>("concat_16x"), val = tensor<int32, [3]>([1, -1, 512])];
            tensor<fp16, [1, ?, 8, 64]> var_293_cast_fp16 = transpose(perm = var_292, x = var_291_cast_fp16)[name = tensor<string, []>("transpose_105")];
            tensor<fp16, [1, ?, 512]> input_39_cast_fp16 = reshape(shape = concat_16x, x = var_293_cast_fp16)[name = tensor<string, []>("input_39_cast_fp16")];
            tensor<fp16, [512, 512]> blocks_1_cross_attn_out_weight_to_fp16 = const()[name = tensor<string, []>("blocks_1_cross_attn_out_weight_to_fp16"), val = tensor<fp16, [512, 512]>(BLOBFILE(path = tensor<string, []>("@model_path/weights/weight.bin"), offset = tensor<uint64, []>(66059072)))];
            tensor<fp16, [512]> blocks_1_cross_attn_out_bias_to_fp16 = const()[name = tensor<string, []>("blocks_1_cross_attn_out_bias_to_fp16"), val = tensor<fp16, [512]>(BLOBFILE(path = tensor<string, []>("@model_path/weights/weight.bin"), offset = tensor<uint64, []>(66583424)))];
            tensor<fp16, [1, ?, 512]> linear_17_cast_fp16 = linear(bias = blocks_1_cross_attn_out_bias_to_fp16, weight = blocks_1_cross_attn_out_weight_to_fp16, x = input_39_cast_fp16)[name = tensor<string, []>("linear_17_cast_fp16")];
            tensor<fp16, [1, ?, 512]> input_41_cast_fp16 = add(x = input_33_cast_fp16, y = linear_17_cast_fp16)[name = tensor<string, []>("input_41_cast_fp16")];
            tensor<int32, [1]> input_43_axes_0 = const()[name = tensor<string, []>("input_43_axes_0"), val = tensor<int32, [1]>([-1])];
            tensor<fp16, [512]> blocks_1_mlp_ln_weight_to_fp16 = const()[name = tensor<string, []>("blocks_1_mlp_ln_weight_to_fp16"), val = tensor<fp16, [512]>(BLOBFILE(path = tensor<string, []>("@model_path/weights/weight.bin"), offset = tensor<uint64, []>(66584512)))];
            tensor<fp16, [512]> blocks_1_mlp_ln_bias_to_fp16 = const()[name = tensor<string, []>("blocks_1_mlp_ln_bias_to_fp16"), val = tensor<fp16, [512]>(BLOBFILE(path = tensor<string, []>("@model_path/weights/weight.bin"), offset = tensor<uint64, []>(66585600)))];
            tensor<fp16, [1, ?, 512]> input_43_cast_fp16 = layer_norm(axes = input_43_axes_0, beta = blocks_1_mlp_ln_bias_to_fp16, epsilon = var_188_to_fp16, gamma = blocks_1_mlp_ln_weight_to_fp16, x = input_41_cast_fp16)[name = tensor<string, []>("input_43_cast_fp16")];
            tensor<fp16, [2048, 512]> blocks_1_mlp_0_weight_to_fp16 = const()[name = tensor<string, []>("blocks_1_mlp_0_weight_to_fp16"), val = tensor<fp16, [2048, 512]>(BLOBFILE(path = tensor<string, []>("@model_path/weights/weight.bin"), offset = tensor<uint64, []>(66586688)))];
            tensor<fp16, [2048]> blocks_1_mlp_0_bias_to_fp16 = const()[name = tensor<string, []>("blocks_1_mlp_0_bias_to_fp16"), val = tensor<fp16, [2048]>(BLOBFILE(path = tensor<string, []>("@model_path/weights/weight.bin"), offset = tensor<uint64, []>(68683904)))];
            tensor<fp16, [1, ?, 2048]> linear_18_cast_fp16 = linear(bias = blocks_1_mlp_0_bias_to_fp16, weight = blocks_1_mlp_0_weight_to_fp16, x = input_43_cast_fp16)[name = tensor<string, []>("linear_18_cast_fp16")];
            tensor<string, []> input_47_mode_0 = const()[name = tensor<string, []>("input_47_mode_0"), val = tensor<string, []>("EXACT")];
            tensor<fp16, [1, ?, 2048]> input_47_cast_fp16 = gelu(mode = input_47_mode_0, x = linear_18_cast_fp16)[name = tensor<string, []>("input_47_cast_fp16")];
            tensor<fp16, [512, 2048]> blocks_1_mlp_2_weight_to_fp16 = const()[name = tensor<string, []>("blocks_1_mlp_2_weight_to_fp16"), val = tensor<fp16, [512, 2048]>(BLOBFILE(path = tensor<string, []>("@model_path/weights/weight.bin"), offset = tensor<uint64, []>(68688064)))];
            tensor<fp16, [512]> blocks_1_mlp_2_bias_to_fp16 = const()[name = tensor<string, []>("blocks_1_mlp_2_bias_to_fp16"), val = tensor<fp16, [512]>(BLOBFILE(path = tensor<string, []>("@model_path/weights/weight.bin"), offset = tensor<uint64, []>(70785280)))];
            tensor<fp16, [1, ?, 512]> linear_19_cast_fp16 = linear(bias = blocks_1_mlp_2_bias_to_fp16, weight = blocks_1_mlp_2_weight_to_fp16, x = input_47_cast_fp16)[name = tensor<string, []>("linear_19_cast_fp16")];
            tensor<fp16, [1, ?, 512]> input_49_cast_fp16 = add(x = input_41_cast_fp16, y = linear_19_cast_fp16)[name = tensor<string, []>("input_49_cast_fp16")];
            tensor<int32, []> var_322 = const()[name = tensor<string, []>("op_322"), val = tensor<int32, []>(-1)];
            tensor<int32, [1]> input_51_axes_0 = const()[name = tensor<string, []>("input_51_axes_0"), val = tensor<int32, [1]>([-1])];
            tensor<fp16, [512]> blocks_2_attn_ln_weight_to_fp16 = const()[name = tensor<string, []>("blocks_2_attn_ln_weight_to_fp16"), val = tensor<fp16, [512]>(BLOBFILE(path = tensor<string, []>("@model_path/weights/weight.bin"), offset = tensor<uint64, []>(70786368)))];
            tensor<fp16, [512]> blocks_2_attn_ln_bias_to_fp16 = const()[name = tensor<string, []>("blocks_2_attn_ln_bias_to_fp16"), val = tensor<fp16, [512]>(BLOBFILE(path = tensor<string, []>("@model_path/weights/weight.bin"), offset = tensor<uint64, []>(70787456)))];
            tensor<fp16, []> var_324_to_fp16 = const()[name = tensor<string, []>("op_324_to_fp16"), val = tensor<fp16, []>(0x1.5p-17)];
            tensor<fp16, [1, ?, 512]> input_51_cast_fp16 = layer_norm(axes = input_51_axes_0, beta = blocks_2_attn_ln_bias_to_fp16, epsilon = var_324_to_fp16, gamma = blocks_2_attn_ln_weight_to_fp16, x = input_49_cast_fp16)[name = tensor<string, []>("input_51_cast_fp16")];
            tensor<fp16, [512, 512]> blocks_2_attn_query_weight_to_fp16 = const()[name = tensor<string, []>("blocks_2_attn_query_weight_to_fp16"), val = tensor<fp16, [512, 512]>(BLOBFILE(path = tensor<string, []>("@model_path/weights/weight.bin"), offset = tensor<uint64, []>(70788544)))];
            tensor<fp16, [512]> blocks_2_attn_query_bias_to_fp16 = const()[name = tensor<string, []>("blocks_2_attn_query_bias_to_fp16"), val = tensor<fp16, [512]>(BLOBFILE(path = tensor<string, []>("@model_path/weights/weight.bin"), offset = tensor<uint64, []>(71312896)))];
            tensor<fp16, [1, ?, 512]> linear_20_cast_fp16 = linear(bias = blocks_2_attn_query_bias_to_fp16, weight = blocks_2_attn_query_weight_to_fp16, x = input_51_cast_fp16)[name = tensor<string, []>("linear_20_cast_fp16")];
            tensor<fp16, [512, 512]> blocks_2_attn_key_weight_to_fp16 = const()[name = tensor<string, []>("blocks_2_attn_key_weight_to_fp16"), val = tensor<fp16, [512, 512]>(BLOBFILE(path = tensor<string, []>("@model_path/weights/weight.bin"), offset = tensor<uint64, []>(71313984)))];
            tensor<fp16, [1, ?, 512]> linear_21_cast_fp16 = linear(bias = linear_1_bias_0_to_fp16, weight = blocks_2_attn_key_weight_to_fp16, x = input_51_cast_fp16)[name = tensor<string, []>("linear_21_cast_fp16")];
            tensor<fp16, [512, 512]> blocks_2_attn_value_weight_to_fp16 = const()[name = tensor<string, []>("blocks_2_attn_value_weight_to_fp16"), val = tensor<fp16, [512, 512]>(BLOBFILE(path = tensor<string, []>("@model_path/weights/weight.bin"), offset = tensor<uint64, []>(71838336)))];
            tensor<fp16, [512]> blocks_2_attn_value_bias_to_fp16 = const()[name = tensor<string, []>("blocks_2_attn_value_bias_to_fp16"), val = tensor<fp16, [512]>(BLOBFILE(path = tensor<string, []>("@model_path/weights/weight.bin"), offset = tensor<uint64, []>(72362688)))];
            tensor<fp16, [1, ?, 512]> linear_22_cast_fp16 = linear(bias = blocks_2_attn_value_bias_to_fp16, weight = blocks_2_attn_value_weight_to_fp16, x = input_51_cast_fp16)[name = tensor<string, []>("linear_22_cast_fp16")];
            tensor<int32, [3]> var_348_shape_cast_fp16 = shape(x = linear_20_cast_fp16)[name = tensor<string, []>("op_348_shape_cast_fp16")];
            tensor<int32, []> gather_16_axis_0 = const()[name = tensor<string, []>("gather_16_axis_0"), val = tensor<int32, []>(0)];
            tensor<int32, []> gather_16_batch_dims_0 = const()[name = tensor<string, []>("gather_16_batch_dims_0"), val = tensor<int32, []>(0)];
            tensor<bool, []> gather_16_validate_indices_0 = const()[name = tensor<string, []>("gather_16_validate_indices_0"), val = tensor<bool, []>(false)];
            tensor<string, []> var_348_shape_cast_fp16_to_uint16_dtype_0 = const()[name = tensor<string, []>("op_348_shape_cast_fp16_to_uint16_dtype_0"), val = tensor<string, []>("uint16")];
            tensor<uint16, []> gather_16_indices_0_to_uint16 = const()[name = tensor<string, []>("gather_16_indices_0_to_uint16"), val = tensor<uint16, []>(1)];
            tensor<uint16, [3]> var_348_shape_cast_fp16_to_uint16 = cast(dtype = var_348_shape_cast_fp16_to_uint16_dtype_0, x = var_348_shape_cast_fp16)[name = tensor<string, []>("cast_58")];
            tensor<uint16, []> gather_16_cast_uint16 = gather(axis = gather_16_axis_0, batch_dims = gather_16_batch_dims_0, indices = gather_16_indices_0_to_uint16, validate_indices = gather_16_validate_indices_0, x = var_348_shape_cast_fp16_to_uint16)[name = tensor<string, []>("gather_16_cast_uint16")];
            tensor<string, []> gather_16_cast_uint16_to_int32_dtype_0 = const()[name = tensor<string, []>("gather_16_cast_uint16_to_int32_dtype_0"), val = tensor<string, []>("int32")];
            tensor<int32, [4]> concat_17x = const()[name = tensor<string, []>("concat_17x"), val = tensor<int32, [4]>([1, -1, 8, 64])];
            tensor<fp16, [1, ?, 8, 64]> var_358_cast_fp16 = reshape(shape = concat_17x, x = linear_20_cast_fp16)[name = tensor<string, []>("op_358_cast_fp16")];
            tensor<fp16, [1, 1, 1, 1]> const_14_to_fp16 = const()[name = tensor<string, []>("const_14_to_fp16"), val = tensor<fp16, [1, 1, 1, 1]>([[[[0x1.6ap-2]]]])];
            tensor<fp16, [1, ?, 8, 64]> q_19_cast_fp16 = mul(x = var_358_cast_fp16, y = const_14_to_fp16)[name = tensor<string, []>("q_19_cast_fp16")];
            tensor<int32, [4]> concat_18x = const()[name = tensor<string, []>("concat_18x"), val = tensor<int32, [4]>([1, -1, 8, 64])];
            tensor<fp16, [1, ?, 8, 64]> var_364_cast_fp16 = reshape(shape = concat_18x, x = linear_21_cast_fp16)[name = tensor<string, []>("op_364_cast_fp16")];
            tensor<fp16, [1, 1, 1, 1]> const_15_to_fp16 = const()[name = tensor<string, []>("const_15_to_fp16"), val = tensor<fp16, [1, 1, 1, 1]>([[[[0x1.6ap-2]]]])];
            tensor<fp16, [1, ?, 8, 64]> k_19_cast_fp16 = mul(x = var_364_cast_fp16, y = const_15_to_fp16)[name = tensor<string, []>("k_19_cast_fp16")];
            tensor<int32, [4]> concat_19x = const()[name = tensor<string, []>("concat_19x"), val = tensor<int32, [4]>([1, -1, 8, 64])];
            tensor<fp16, [1, ?, 8, 64]> var_369_cast_fp16 = reshape(shape = concat_19x, x = linear_22_cast_fp16)[name = tensor<string, []>("op_369_cast_fp16")];
            tensor<int32, [4]> var_370 = const()[name = tensor<string, []>("op_370"), val = tensor<int32, [4]>([0, 2, 1, 3])];
            tensor<bool, []> qk_5_transpose_x_0 = const()[name = tensor<string, []>("qk_5_transpose_x_0"), val = tensor<bool, []>(false)];
            tensor<bool, []> qk_5_transpose_y_0 = const()[name = tensor<string, []>("qk_5_transpose_y_0"), val = tensor<bool, []>(false)];
            tensor<int32, [4]> transpose_57_perm_0 = const()[name = tensor<string, []>("transpose_57_perm_0"), val = tensor<int32, [4]>([0, 2, -3, -1])];
            tensor<int32, [4]> transpose_58_perm_0 = const()[name = tensor<string, []>("transpose_58_perm_0"), val = tensor<int32, [4]>([0, 2, -1, -3])];
            tensor<fp16, [1, 8, 64, ?]> transpose_58 = transpose(perm = transpose_58_perm_0, x = k_19_cast_fp16)[name = tensor<string, []>("transpose_102")];
            tensor<fp16, [1, 8, ?, 64]> transpose_57 = transpose(perm = transpose_57_perm_0, x = q_19_cast_fp16)[name = tensor<string, []>("transpose_103")];
            tensor<fp16, [1, 8, ?, ?]> qk_5_cast_fp16 = matmul(transpose_x = qk_5_transpose_x_0, transpose_y = qk_5_transpose_y_0, x = transpose_57, y = transpose_58)[name = tensor<string, []>("qk_5_cast_fp16")];
            tensor<int32, []> concat_20_values1_0 = const()[name = tensor<string, []>("concat_20_values1_0"), val = tensor<int32, []>(448)];
            tensor<int32, []> concat_20_axis_0 = const()[name = tensor<string, []>("concat_20_axis_0"), val = tensor<int32, []>(0)];
            tensor<bool, []> concat_20_interleave_0 = const()[name = tensor<string, []>("concat_20_interleave_0"), val = tensor<bool, []>(false)];
            tensor<int32, []> gather_16_cast_uint16_to_int32 = cast(dtype = gather_16_cast_uint16_to_int32_dtype_0, x = gather_16_cast_uint16)[name = tensor<string, []>("cast_57")];
            tensor<int32, [2]> concat_20 = concat(axis = concat_20_axis_0, interleave = concat_20_interleave_0, values = (gather_16_cast_uint16_to_int32, concat_20_values1_0))[name = tensor<string, []>("concat_20")];
            tensor<int32, [2]> var_373_begin_0 = const()[name = tensor<string, []>("op_373_begin_0"), val = tensor<int32, [2]>([0, 0])];
            tensor<bool, [2]> var_373_end_mask_0 = const()[name = tensor<string, []>("op_373_end_mask_0"), val = tensor<bool, [2]>([false, true])];
            tensor<fp16, [?, 448]> var_373_cast_fp16 = slice_by_index(begin = var_373_begin_0, end = concat_20, end_mask = var_373_end_mask_0, x = mask_to_fp16)[name = tensor<string, []>("op_373_cast_fp16")];
            tensor<int32, []> concat_21_values0_0 = const()[name = tensor<string, []>("concat_21_values0_0"), val = tensor<int32, []>(0)];
            tensor<int32, []> concat_21_axis_0 = const()[name = tensor<string, []>("concat_21_axis_0"), val = tensor<int32, []>(0)];
            tensor<bool, []> concat_21_interleave_0 = const()[name = tensor<string, []>("concat_21_interleave_0"), val = tensor<bool, []>(false)];
            tensor<int32, [2]> concat_21 = concat(axis = concat_21_axis_0, interleave = concat_21_interleave_0, values = (concat_21_values0_0, gather_16_cast_uint16_to_int32))[name = tensor<string, []>("concat_21")];
            tensor<int32, [2]> var_374_begin_0 = const()[name = tensor<string, []>("op_374_begin_0"), val = tensor<int32, [2]>([0, 0])];
            tensor<bool, [2]> var_374_end_mask_0 = const()[name = tensor<string, []>("op_374_end_mask_0"), val = tensor<bool, [2]>([true, false])];
            tensor<fp16, [?, ?]> var_374_cast_fp16 = slice_by_index(begin = var_374_begin_0, end = concat_21, end_mask = var_374_end_mask_0, x = var_373_cast_fp16)[name = tensor<string, []>("op_374_cast_fp16")];
            tensor<fp16, [1, 8, ?, ?]> input_53_cast_fp16 = add(x = qk_5_cast_fp16, y = var_374_cast_fp16)[name = tensor<string, []>("input_53_cast_fp16")];
            tensor<fp16, [1, 8, ?, ?]> w_9_cast_fp16 = softmax(axis = var_322, x = input_53_cast_fp16)[name = tensor<string, []>("w_9_cast_fp16")];
            tensor<bool, []> var_377_transpose_x_0 = const()[name = tensor<string, []>("op_377_transpose_x_0"), val = tensor<bool, []>(false)];
            tensor<bool, []> var_377_transpose_y_0 = const()[name = tensor<string, []>("op_377_transpose_y_0"), val = tensor<bool, []>(false)];
            tensor<fp16, [1, 8, ?, 64]> v_19_cast_fp16 = transpose(perm = var_370, x = var_369_cast_fp16)[name = tensor<string, []>("transpose_104")];
            tensor<fp16, [1, 8, ?, 64]> var_377_cast_fp16 = matmul(transpose_x = var_377_transpose_x_0, transpose_y = var_377_transpose_y_0, x = w_9_cast_fp16, y = v_19_cast_fp16)[name = tensor<string, []>("op_377_cast_fp16")];
            tensor<int32, [4]> var_378 = const()[name = tensor<string, []>("op_378"), val = tensor<int32, [4]>([0, 2, 1, 3])];
            tensor<int32, [3]> concat_22x = const()[name = tensor<string, []>("concat_22x"), val = tensor<int32, [3]>([1, -1, 512])];
            tensor<fp16, [1, ?, 8, 64]> var_379_cast_fp16 = transpose(perm = var_378, x = var_377_cast_fp16)[name = tensor<string, []>("transpose_101")];
            tensor<fp16, [1, ?, 512]> input_55_cast_fp16 = reshape(shape = concat_22x, x = var_379_cast_fp16)[name = tensor<string, []>("input_55_cast_fp16")];
            tensor<fp16, [512, 512]> blocks_2_attn_out_weight_to_fp16 = const()[name = tensor<string, []>("blocks_2_attn_out_weight_to_fp16"), val = tensor<fp16, [512, 512]>(BLOBFILE(path = tensor<string, []>("@model_path/weights/weight.bin"), offset = tensor<uint64, []>(72363776)))];
            tensor<fp16, [512]> blocks_2_attn_out_bias_to_fp16 = const()[name = tensor<string, []>("blocks_2_attn_out_bias_to_fp16"), val = tensor<fp16, [512]>(BLOBFILE(path = tensor<string, []>("@model_path/weights/weight.bin"), offset = tensor<uint64, []>(72888128)))];
            tensor<fp16, [1, ?, 512]> linear_23_cast_fp16 = linear(bias = blocks_2_attn_out_bias_to_fp16, weight = blocks_2_attn_out_weight_to_fp16, x = input_55_cast_fp16)[name = tensor<string, []>("linear_23_cast_fp16")];
            tensor<fp16, [1, ?, 512]> input_57_cast_fp16 = add(x = input_49_cast_fp16, y = linear_23_cast_fp16)[name = tensor<string, []>("input_57_cast_fp16")];
            tensor<int32, [1]> input_59_axes_0 = const()[name = tensor<string, []>("input_59_axes_0"), val = tensor<int32, [1]>([-1])];
            tensor<fp16, [512]> blocks_2_cross_attn_ln_weight_to_fp16 = const()[name = tensor<string, []>("blocks_2_cross_attn_ln_weight_to_fp16"), val = tensor<fp16, [512]>(BLOBFILE(path = tensor<string, []>("@model_path/weights/weight.bin"), offset = tensor<uint64, []>(72889216)))];
            tensor<fp16, [512]> blocks_2_cross_attn_ln_bias_to_fp16 = const()[name = tensor<string, []>("blocks_2_cross_attn_ln_bias_to_fp16"), val = tensor<fp16, [512]>(BLOBFILE(path = tensor<string, []>("@model_path/weights/weight.bin"), offset = tensor<uint64, []>(72890304)))];
            tensor<fp16, [1, ?, 512]> input_59_cast_fp16 = layer_norm(axes = input_59_axes_0, beta = blocks_2_cross_attn_ln_bias_to_fp16, epsilon = var_324_to_fp16, gamma = blocks_2_cross_attn_ln_weight_to_fp16, x = input_57_cast_fp16)[name = tensor<string, []>("input_59_cast_fp16")];
            tensor<fp16, [512, 512]> blocks_2_cross_attn_query_weight_to_fp16 = const()[name = tensor<string, []>("blocks_2_cross_attn_query_weight_to_fp16"), val = tensor<fp16, [512, 512]>(BLOBFILE(path = tensor<string, []>("@model_path/weights/weight.bin"), offset = tensor<uint64, []>(72891392)))];
            tensor<fp16, [512]> blocks_2_cross_attn_query_bias_to_fp16 = const()[name = tensor<string, []>("blocks_2_cross_attn_query_bias_to_fp16"), val = tensor<fp16, [512]>(BLOBFILE(path = tensor<string, []>("@model_path/weights/weight.bin"), offset = tensor<uint64, []>(73415744)))];
            tensor<fp16, [1, ?, 512]> linear_24_cast_fp16 = linear(bias = blocks_2_cross_attn_query_bias_to_fp16, weight = blocks_2_cross_attn_query_weight_to_fp16, x = input_59_cast_fp16)[name = tensor<string, []>("linear_24_cast_fp16")];
            tensor<fp16, [512, 512]> blocks_2_cross_attn_key_weight_to_fp16 = const()[name = tensor<string, []>("blocks_2_cross_attn_key_weight_to_fp16"), val = tensor<fp16, [512, 512]>(BLOBFILE(path = tensor<string, []>("@model_path/weights/weight.bin"), offset = tensor<uint64, []>(73416832)))];
            tensor<fp16, [1, 1500, 512]> linear_25_cast_fp16 = linear(bias = linear_1_bias_0_to_fp16, weight = blocks_2_cross_attn_key_weight_to_fp16, x = encoder_output_embeds)[name = tensor<string, []>("linear_25_cast_fp16")];
            tensor<fp16, [512, 512]> blocks_2_cross_attn_value_weight_to_fp16 = const()[name = tensor<string, []>("blocks_2_cross_attn_value_weight_to_fp16"), val = tensor<fp16, [512, 512]>(BLOBFILE(path = tensor<string, []>("@model_path/weights/weight.bin"), offset = tensor<uint64, []>(73941184)))];
            tensor<fp16, [512]> blocks_2_cross_attn_value_bias_to_fp16 = const()[name = tensor<string, []>("blocks_2_cross_attn_value_bias_to_fp16"), val = tensor<fp16, [512]>(BLOBFILE(path = tensor<string, []>("@model_path/weights/weight.bin"), offset = tensor<uint64, []>(74465536)))];
            tensor<fp16, [1, 1500, 512]> linear_26_cast_fp16 = linear(bias = blocks_2_cross_attn_value_bias_to_fp16, weight = blocks_2_cross_attn_value_weight_to_fp16, x = encoder_output_embeds)[name = tensor<string, []>("linear_26_cast_fp16")];
            tensor<int32, [4]> concat_23x = const()[name = tensor<string, []>("concat_23x"), val = tensor<int32, [4]>([1, -1, 8, 64])];
            tensor<fp16, [1, ?, 8, 64]> var_411_cast_fp16 = reshape(shape = concat_23x, x = linear_24_cast_fp16)[name = tensor<string, []>("op_411_cast_fp16")];
            tensor<fp16, [1, 1, 1, 1]> const_16_to_fp16 = const()[name = tensor<string, []>("const_16_to_fp16"), val = tensor<fp16, [1, 1, 1, 1]>([[[[0x1.6ap-2]]]])];
            tensor<fp16, [1, ?, 8, 64]> q_23_cast_fp16 = mul(x = var_411_cast_fp16, y = const_16_to_fp16)[name = tensor<string, []>("q_23_cast_fp16")];
            tensor<int32, [4]> var_416 = const()[name = tensor<string, []>("op_416"), val = tensor<int32, [4]>([1, 1500, 8, 64])];
            tensor<fp16, [1, 1500, 8, 64]> var_417_cast_fp16 = reshape(shape = var_416, x = linear_25_cast_fp16)[name = tensor<string, []>("op_417_cast_fp16")];
            tensor<fp16, [1, 1, 1, 1]> const_17_to_fp16 = const()[name = tensor<string, []>("const_17_to_fp16"), val = tensor<fp16, [1, 1, 1, 1]>([[[[0x1.6ap-2]]]])];
            tensor<fp16, [1, 1500, 8, 64]> k_23_cast_fp16 = mul(x = var_417_cast_fp16, y = const_17_to_fp16)[name = tensor<string, []>("k_23_cast_fp16")];
            tensor<int32, [4]> var_421 = const()[name = tensor<string, []>("op_421"), val = tensor<int32, [4]>([1, 1500, 8, 64])];
            tensor<fp16, [1, 1500, 8, 64]> var_422_cast_fp16 = reshape(shape = var_421, x = linear_26_cast_fp16)[name = tensor<string, []>("op_422_cast_fp16")];
            tensor<int32, [4]> var_423 = const()[name = tensor<string, []>("op_423"), val = tensor<int32, [4]>([0, 2, 1, 3])];
            tensor<bool, []> input_61_transpose_x_0 = const()[name = tensor<string, []>("input_61_transpose_x_0"), val = tensor<bool, []>(false)];
            tensor<bool, []> input_61_transpose_y_0 = const()[name = tensor<string, []>("input_61_transpose_y_0"), val = tensor<bool, []>(false)];
            tensor<int32, [4]> transpose_59_perm_0 = const()[name = tensor<string, []>("transpose_59_perm_0"), val = tensor<int32, [4]>([0, 2, -3, -1])];
            tensor<int32, [4]> transpose_60_perm_0 = const()[name = tensor<string, []>("transpose_60_perm_0"), val = tensor<int32, [4]>([0, 2, -1, -3])];
            tensor<fp16, [1, 8, 64, 1500]> transpose_60 = transpose(perm = transpose_60_perm_0, x = k_23_cast_fp16)[name = tensor<string, []>("transpose_98")];
            tensor<fp16, [1, 8, ?, 64]> transpose_59 = transpose(perm = transpose_59_perm_0, x = q_23_cast_fp16)[name = tensor<string, []>("transpose_99")];
            tensor<fp16, [1, 8, ?, 1500]> input_61_cast_fp16 = matmul(transpose_x = input_61_transpose_x_0, transpose_y = input_61_transpose_y_0, x = transpose_59, y = transpose_60)[name = tensor<string, []>("input_61_cast_fp16")];
            tensor<fp16, [1, 8, ?, 1500]> w_11_cast_fp16 = softmax(axis = var_322, x = input_61_cast_fp16)[name = tensor<string, []>("w_11_cast_fp16")];
            tensor<bool, []> var_427_transpose_x_0 = const()[name = tensor<string, []>("op_427_transpose_x_0"), val = tensor<bool, []>(false)];
            tensor<bool, []> var_427_transpose_y_0 = const()[name = tensor<string, []>("op_427_transpose_y_0"), val = tensor<bool, []>(false)];
            tensor<fp16, [1, 8, 1500, 64]> v_23_cast_fp16 = transpose(perm = var_423, x = var_422_cast_fp16)[name = tensor<string, []>("transpose_100")];
            tensor<fp16, [1, 8, ?, 64]> var_427_cast_fp16 = matmul(transpose_x = var_427_transpose_x_0, transpose_y = var_427_transpose_y_0, x = w_11_cast_fp16, y = v_23_cast_fp16)[name = tensor<string, []>("op_427_cast_fp16")];
            tensor<int32, [4]> var_428 = const()[name = tensor<string, []>("op_428"), val = tensor<int32, [4]>([0, 2, 1, 3])];
            tensor<int32, [3]> concat_24x = const()[name = tensor<string, []>("concat_24x"), val = tensor<int32, [3]>([1, -1, 512])];
            tensor<fp16, [1, ?, 8, 64]> var_429_cast_fp16 = transpose(perm = var_428, x = var_427_cast_fp16)[name = tensor<string, []>("transpose_97")];
            tensor<fp16, [1, ?, 512]> input_63_cast_fp16 = reshape(shape = concat_24x, x = var_429_cast_fp16)[name = tensor<string, []>("input_63_cast_fp16")];
            tensor<fp16, [512, 512]> blocks_2_cross_attn_out_weight_to_fp16 = const()[name = tensor<string, []>("blocks_2_cross_attn_out_weight_to_fp16"), val = tensor<fp16, [512, 512]>(BLOBFILE(path = tensor<string, []>("@model_path/weights/weight.bin"), offset = tensor<uint64, []>(74466624)))];
            tensor<fp16, [512]> blocks_2_cross_attn_out_bias_to_fp16 = const()[name = tensor<string, []>("blocks_2_cross_attn_out_bias_to_fp16"), val = tensor<fp16, [512]>(BLOBFILE(path = tensor<string, []>("@model_path/weights/weight.bin"), offset = tensor<uint64, []>(74990976)))];
            tensor<fp16, [1, ?, 512]> linear_27_cast_fp16 = linear(bias = blocks_2_cross_attn_out_bias_to_fp16, weight = blocks_2_cross_attn_out_weight_to_fp16, x = input_63_cast_fp16)[name = tensor<string, []>("linear_27_cast_fp16")];
            tensor<fp16, [1, ?, 512]> input_65_cast_fp16 = add(x = input_57_cast_fp16, y = linear_27_cast_fp16)[name = tensor<string, []>("input_65_cast_fp16")];
            tensor<int32, [1]> input_67_axes_0 = const()[name = tensor<string, []>("input_67_axes_0"), val = tensor<int32, [1]>([-1])];
            tensor<fp16, [512]> blocks_2_mlp_ln_weight_to_fp16 = const()[name = tensor<string, []>("blocks_2_mlp_ln_weight_to_fp16"), val = tensor<fp16, [512]>(BLOBFILE(path = tensor<string, []>("@model_path/weights/weight.bin"), offset = tensor<uint64, []>(74992064)))];
            tensor<fp16, [512]> blocks_2_mlp_ln_bias_to_fp16 = const()[name = tensor<string, []>("blocks_2_mlp_ln_bias_to_fp16"), val = tensor<fp16, [512]>(BLOBFILE(path = tensor<string, []>("@model_path/weights/weight.bin"), offset = tensor<uint64, []>(74993152)))];
            tensor<fp16, [1, ?, 512]> input_67_cast_fp16 = layer_norm(axes = input_67_axes_0, beta = blocks_2_mlp_ln_bias_to_fp16, epsilon = var_324_to_fp16, gamma = blocks_2_mlp_ln_weight_to_fp16, x = input_65_cast_fp16)[name = tensor<string, []>("input_67_cast_fp16")];
            tensor<fp16, [2048, 512]> blocks_2_mlp_0_weight_to_fp16 = const()[name = tensor<string, []>("blocks_2_mlp_0_weight_to_fp16"), val = tensor<fp16, [2048, 512]>(BLOBFILE(path = tensor<string, []>("@model_path/weights/weight.bin"), offset = tensor<uint64, []>(74994240)))];
            tensor<fp16, [2048]> blocks_2_mlp_0_bias_to_fp16 = const()[name = tensor<string, []>("blocks_2_mlp_0_bias_to_fp16"), val = tensor<fp16, [2048]>(BLOBFILE(path = tensor<string, []>("@model_path/weights/weight.bin"), offset = tensor<uint64, []>(77091456)))];
            tensor<fp16, [1, ?, 2048]> linear_28_cast_fp16 = linear(bias = blocks_2_mlp_0_bias_to_fp16, weight = blocks_2_mlp_0_weight_to_fp16, x = input_67_cast_fp16)[name = tensor<string, []>("linear_28_cast_fp16")];
            tensor<string, []> input_71_mode_0 = const()[name = tensor<string, []>("input_71_mode_0"), val = tensor<string, []>("EXACT")];
            tensor<fp16, [1, ?, 2048]> input_71_cast_fp16 = gelu(mode = input_71_mode_0, x = linear_28_cast_fp16)[name = tensor<string, []>("input_71_cast_fp16")];
            tensor<fp16, [512, 2048]> blocks_2_mlp_2_weight_to_fp16 = const()[name = tensor<string, []>("blocks_2_mlp_2_weight_to_fp16"), val = tensor<fp16, [512, 2048]>(BLOBFILE(path = tensor<string, []>("@model_path/weights/weight.bin"), offset = tensor<uint64, []>(77095616)))];
            tensor<fp16, [512]> blocks_2_mlp_2_bias_to_fp16 = const()[name = tensor<string, []>("blocks_2_mlp_2_bias_to_fp16"), val = tensor<fp16, [512]>(BLOBFILE(path = tensor<string, []>("@model_path/weights/weight.bin"), offset = tensor<uint64, []>(79192832)))];
            tensor<fp16, [1, ?, 512]> linear_29_cast_fp16 = linear(bias = blocks_2_mlp_2_bias_to_fp16, weight = blocks_2_mlp_2_weight_to_fp16, x = input_71_cast_fp16)[name = tensor<string, []>("linear_29_cast_fp16")];
            tensor<fp16, [1, ?, 512]> input_73_cast_fp16 = add(x = input_65_cast_fp16, y = linear_29_cast_fp16)[name = tensor<string, []>("input_73_cast_fp16")];
            tensor<int32, []> var_458 = const()[name = tensor<string, []>("op_458"), val = tensor<int32, []>(-1)];
            tensor<int32, [1]> input_75_axes_0 = const()[name = tensor<string, []>("input_75_axes_0"), val = tensor<int32, [1]>([-1])];
            tensor<fp16, [512]> blocks_3_attn_ln_weight_to_fp16 = const()[name = tensor<string, []>("blocks_3_attn_ln_weight_to_fp16"), val = tensor<fp16, [512]>(BLOBFILE(path = tensor<string, []>("@model_path/weights/weight.bin"), offset = tensor<uint64, []>(79193920)))];
            tensor<fp16, [512]> blocks_3_attn_ln_bias_to_fp16 = const()[name = tensor<string, []>("blocks_3_attn_ln_bias_to_fp16"), val = tensor<fp16, [512]>(BLOBFILE(path = tensor<string, []>("@model_path/weights/weight.bin"), offset = tensor<uint64, []>(79195008)))];
            tensor<fp16, []> var_460_to_fp16 = const()[name = tensor<string, []>("op_460_to_fp16"), val = tensor<fp16, []>(0x1.5p-17)];
            tensor<fp16, [1, ?, 512]> input_75_cast_fp16 = layer_norm(axes = input_75_axes_0, beta = blocks_3_attn_ln_bias_to_fp16, epsilon = var_460_to_fp16, gamma = blocks_3_attn_ln_weight_to_fp16, x = input_73_cast_fp16)[name = tensor<string, []>("input_75_cast_fp16")];
            tensor<fp16, [512, 512]> blocks_3_attn_query_weight_to_fp16 = const()[name = tensor<string, []>("blocks_3_attn_query_weight_to_fp16"), val = tensor<fp16, [512, 512]>(BLOBFILE(path = tensor<string, []>("@model_path/weights/weight.bin"), offset = tensor<uint64, []>(79196096)))];
            tensor<fp16, [512]> blocks_3_attn_query_bias_to_fp16 = const()[name = tensor<string, []>("blocks_3_attn_query_bias_to_fp16"), val = tensor<fp16, [512]>(BLOBFILE(path = tensor<string, []>("@model_path/weights/weight.bin"), offset = tensor<uint64, []>(79720448)))];
            tensor<fp16, [1, ?, 512]> linear_30_cast_fp16 = linear(bias = blocks_3_attn_query_bias_to_fp16, weight = blocks_3_attn_query_weight_to_fp16, x = input_75_cast_fp16)[name = tensor<string, []>("linear_30_cast_fp16")];
            tensor<fp16, [512, 512]> blocks_3_attn_key_weight_to_fp16 = const()[name = tensor<string, []>("blocks_3_attn_key_weight_to_fp16"), val = tensor<fp16, [512, 512]>(BLOBFILE(path = tensor<string, []>("@model_path/weights/weight.bin"), offset = tensor<uint64, []>(79721536)))];
            tensor<fp16, [1, ?, 512]> linear_31_cast_fp16 = linear(bias = linear_1_bias_0_to_fp16, weight = blocks_3_attn_key_weight_to_fp16, x = input_75_cast_fp16)[name = tensor<string, []>("linear_31_cast_fp16")];
            tensor<fp16, [512, 512]> blocks_3_attn_value_weight_to_fp16 = const()[name = tensor<string, []>("blocks_3_attn_value_weight_to_fp16"), val = tensor<fp16, [512, 512]>(BLOBFILE(path = tensor<string, []>("@model_path/weights/weight.bin"), offset = tensor<uint64, []>(80245888)))];
            tensor<fp16, [512]> blocks_3_attn_value_bias_to_fp16 = const()[name = tensor<string, []>("blocks_3_attn_value_bias_to_fp16"), val = tensor<fp16, [512]>(BLOBFILE(path = tensor<string, []>("@model_path/weights/weight.bin"), offset = tensor<uint64, []>(80770240)))];
            tensor<fp16, [1, ?, 512]> linear_32_cast_fp16 = linear(bias = blocks_3_attn_value_bias_to_fp16, weight = blocks_3_attn_value_weight_to_fp16, x = input_75_cast_fp16)[name = tensor<string, []>("linear_32_cast_fp16")];
            tensor<int32, [3]> var_484_shape_cast_fp16 = shape(x = linear_30_cast_fp16)[name = tensor<string, []>("op_484_shape_cast_fp16")];
            tensor<int32, []> gather_23_axis_0 = const()[name = tensor<string, []>("gather_23_axis_0"), val = tensor<int32, []>(0)];
            tensor<int32, []> gather_23_batch_dims_0 = const()[name = tensor<string, []>("gather_23_batch_dims_0"), val = tensor<int32, []>(0)];
            tensor<bool, []> gather_23_validate_indices_0 = const()[name = tensor<string, []>("gather_23_validate_indices_0"), val = tensor<bool, []>(false)];
            tensor<string, []> var_484_shape_cast_fp16_to_uint16_dtype_0 = const()[name = tensor<string, []>("op_484_shape_cast_fp16_to_uint16_dtype_0"), val = tensor<string, []>("uint16")];
            tensor<uint16, []> gather_23_indices_0_to_uint16 = const()[name = tensor<string, []>("gather_23_indices_0_to_uint16"), val = tensor<uint16, []>(1)];
            tensor<uint16, [3]> var_484_shape_cast_fp16_to_uint16 = cast(dtype = var_484_shape_cast_fp16_to_uint16_dtype_0, x = var_484_shape_cast_fp16)[name = tensor<string, []>("cast_56")];
            tensor<uint16, []> gather_23_cast_uint16 = gather(axis = gather_23_axis_0, batch_dims = gather_23_batch_dims_0, indices = gather_23_indices_0_to_uint16, validate_indices = gather_23_validate_indices_0, x = var_484_shape_cast_fp16_to_uint16)[name = tensor<string, []>("gather_23_cast_uint16")];
            tensor<string, []> gather_23_cast_uint16_to_int32_dtype_0 = const()[name = tensor<string, []>("gather_23_cast_uint16_to_int32_dtype_0"), val = tensor<string, []>("int32")];
            tensor<int32, [4]> concat_25x = const()[name = tensor<string, []>("concat_25x"), val = tensor<int32, [4]>([1, -1, 8, 64])];
            tensor<fp16, [1, ?, 8, 64]> var_494_cast_fp16 = reshape(shape = concat_25x, x = linear_30_cast_fp16)[name = tensor<string, []>("op_494_cast_fp16")];
            tensor<fp16, [1, 1, 1, 1]> const_18_to_fp16 = const()[name = tensor<string, []>("const_18_to_fp16"), val = tensor<fp16, [1, 1, 1, 1]>([[[[0x1.6ap-2]]]])];
            tensor<fp16, [1, ?, 8, 64]> q_27_cast_fp16 = mul(x = var_494_cast_fp16, y = const_18_to_fp16)[name = tensor<string, []>("q_27_cast_fp16")];
            tensor<int32, [4]> concat_26x = const()[name = tensor<string, []>("concat_26x"), val = tensor<int32, [4]>([1, -1, 8, 64])];
            tensor<fp16, [1, ?, 8, 64]> var_500_cast_fp16 = reshape(shape = concat_26x, x = linear_31_cast_fp16)[name = tensor<string, []>("op_500_cast_fp16")];
            tensor<fp16, [1, 1, 1, 1]> const_19_to_fp16 = const()[name = tensor<string, []>("const_19_to_fp16"), val = tensor<fp16, [1, 1, 1, 1]>([[[[0x1.6ap-2]]]])];
            tensor<fp16, [1, ?, 8, 64]> k_27_cast_fp16 = mul(x = var_500_cast_fp16, y = const_19_to_fp16)[name = tensor<string, []>("k_27_cast_fp16")];
            tensor<int32, [4]> concat_27x = const()[name = tensor<string, []>("concat_27x"), val = tensor<int32, [4]>([1, -1, 8, 64])];
            tensor<fp16, [1, ?, 8, 64]> var_505_cast_fp16 = reshape(shape = concat_27x, x = linear_32_cast_fp16)[name = tensor<string, []>("op_505_cast_fp16")];
            tensor<int32, [4]> var_506 = const()[name = tensor<string, []>("op_506"), val = tensor<int32, [4]>([0, 2, 1, 3])];
            tensor<bool, []> qk_7_transpose_x_0 = const()[name = tensor<string, []>("qk_7_transpose_x_0"), val = tensor<bool, []>(false)];
            tensor<bool, []> qk_7_transpose_y_0 = const()[name = tensor<string, []>("qk_7_transpose_y_0"), val = tensor<bool, []>(false)];
            tensor<int32, [4]> transpose_61_perm_0 = const()[name = tensor<string, []>("transpose_61_perm_0"), val = tensor<int32, [4]>([0, 2, -3, -1])];
            tensor<int32, [4]> transpose_62_perm_0 = const()[name = tensor<string, []>("transpose_62_perm_0"), val = tensor<int32, [4]>([0, 2, -1, -3])];
            tensor<fp16, [1, 8, 64, ?]> transpose_62 = transpose(perm = transpose_62_perm_0, x = k_27_cast_fp16)[name = tensor<string, []>("transpose_94")];
            tensor<fp16, [1, 8, ?, 64]> transpose_61 = transpose(perm = transpose_61_perm_0, x = q_27_cast_fp16)[name = tensor<string, []>("transpose_95")];
            tensor<fp16, [1, 8, ?, ?]> qk_7_cast_fp16 = matmul(transpose_x = qk_7_transpose_x_0, transpose_y = qk_7_transpose_y_0, x = transpose_61, y = transpose_62)[name = tensor<string, []>("qk_7_cast_fp16")];
            tensor<int32, []> concat_28_values1_0 = const()[name = tensor<string, []>("concat_28_values1_0"), val = tensor<int32, []>(448)];
            tensor<int32, []> concat_28_axis_0 = const()[name = tensor<string, []>("concat_28_axis_0"), val = tensor<int32, []>(0)];
            tensor<bool, []> concat_28_interleave_0 = const()[name = tensor<string, []>("concat_28_interleave_0"), val = tensor<bool, []>(false)];
            tensor<int32, []> gather_23_cast_uint16_to_int32 = cast(dtype = gather_23_cast_uint16_to_int32_dtype_0, x = gather_23_cast_uint16)[name = tensor<string, []>("cast_55")];
            tensor<int32, [2]> concat_28 = concat(axis = concat_28_axis_0, interleave = concat_28_interleave_0, values = (gather_23_cast_uint16_to_int32, concat_28_values1_0))[name = tensor<string, []>("concat_28")];
            tensor<int32, [2]> var_509_begin_0 = const()[name = tensor<string, []>("op_509_begin_0"), val = tensor<int32, [2]>([0, 0])];
            tensor<bool, [2]> var_509_end_mask_0 = const()[name = tensor<string, []>("op_509_end_mask_0"), val = tensor<bool, [2]>([false, true])];
            tensor<fp16, [?, 448]> var_509_cast_fp16 = slice_by_index(begin = var_509_begin_0, end = concat_28, end_mask = var_509_end_mask_0, x = mask_to_fp16)[name = tensor<string, []>("op_509_cast_fp16")];
            tensor<int32, []> concat_29_values0_0 = const()[name = tensor<string, []>("concat_29_values0_0"), val = tensor<int32, []>(0)];
            tensor<int32, []> concat_29_axis_0 = const()[name = tensor<string, []>("concat_29_axis_0"), val = tensor<int32, []>(0)];
            tensor<bool, []> concat_29_interleave_0 = const()[name = tensor<string, []>("concat_29_interleave_0"), val = tensor<bool, []>(false)];
            tensor<int32, [2]> concat_29 = concat(axis = concat_29_axis_0, interleave = concat_29_interleave_0, values = (concat_29_values0_0, gather_23_cast_uint16_to_int32))[name = tensor<string, []>("concat_29")];
            tensor<int32, [2]> var_510_begin_0 = const()[name = tensor<string, []>("op_510_begin_0"), val = tensor<int32, [2]>([0, 0])];
            tensor<bool, [2]> var_510_end_mask_0 = const()[name = tensor<string, []>("op_510_end_mask_0"), val = tensor<bool, [2]>([true, false])];
            tensor<fp16, [?, ?]> var_510_cast_fp16 = slice_by_index(begin = var_510_begin_0, end = concat_29, end_mask = var_510_end_mask_0, x = var_509_cast_fp16)[name = tensor<string, []>("op_510_cast_fp16")];
            tensor<fp16, [1, 8, ?, ?]> input_77_cast_fp16 = add(x = qk_7_cast_fp16, y = var_510_cast_fp16)[name = tensor<string, []>("input_77_cast_fp16")];
            tensor<fp16, [1, 8, ?, ?]> w_13_cast_fp16 = softmax(axis = var_458, x = input_77_cast_fp16)[name = tensor<string, []>("w_13_cast_fp16")];
            tensor<bool, []> var_513_transpose_x_0 = const()[name = tensor<string, []>("op_513_transpose_x_0"), val = tensor<bool, []>(false)];
            tensor<bool, []> var_513_transpose_y_0 = const()[name = tensor<string, []>("op_513_transpose_y_0"), val = tensor<bool, []>(false)];
            tensor<fp16, [1, 8, ?, 64]> v_27_cast_fp16 = transpose(perm = var_506, x = var_505_cast_fp16)[name = tensor<string, []>("transpose_96")];
            tensor<fp16, [1, 8, ?, 64]> var_513_cast_fp16 = matmul(transpose_x = var_513_transpose_x_0, transpose_y = var_513_transpose_y_0, x = w_13_cast_fp16, y = v_27_cast_fp16)[name = tensor<string, []>("op_513_cast_fp16")];
            tensor<int32, [4]> var_514 = const()[name = tensor<string, []>("op_514"), val = tensor<int32, [4]>([0, 2, 1, 3])];
            tensor<int32, [3]> concat_30x = const()[name = tensor<string, []>("concat_30x"), val = tensor<int32, [3]>([1, -1, 512])];
            tensor<fp16, [1, ?, 8, 64]> var_515_cast_fp16 = transpose(perm = var_514, x = var_513_cast_fp16)[name = tensor<string, []>("transpose_93")];
            tensor<fp16, [1, ?, 512]> input_79_cast_fp16 = reshape(shape = concat_30x, x = var_515_cast_fp16)[name = tensor<string, []>("input_79_cast_fp16")];
            tensor<fp16, [512, 512]> blocks_3_attn_out_weight_to_fp16 = const()[name = tensor<string, []>("blocks_3_attn_out_weight_to_fp16"), val = tensor<fp16, [512, 512]>(BLOBFILE(path = tensor<string, []>("@model_path/weights/weight.bin"), offset = tensor<uint64, []>(80771328)))];
            tensor<fp16, [512]> blocks_3_attn_out_bias_to_fp16 = const()[name = tensor<string, []>("blocks_3_attn_out_bias_to_fp16"), val = tensor<fp16, [512]>(BLOBFILE(path = tensor<string, []>("@model_path/weights/weight.bin"), offset = tensor<uint64, []>(81295680)))];
            tensor<fp16, [1, ?, 512]> linear_33_cast_fp16 = linear(bias = blocks_3_attn_out_bias_to_fp16, weight = blocks_3_attn_out_weight_to_fp16, x = input_79_cast_fp16)[name = tensor<string, []>("linear_33_cast_fp16")];
            tensor<fp16, [1, ?, 512]> input_81_cast_fp16 = add(x = input_73_cast_fp16, y = linear_33_cast_fp16)[name = tensor<string, []>("input_81_cast_fp16")];
            tensor<int32, [1]> input_83_axes_0 = const()[name = tensor<string, []>("input_83_axes_0"), val = tensor<int32, [1]>([-1])];
            tensor<fp16, [512]> blocks_3_cross_attn_ln_weight_to_fp16 = const()[name = tensor<string, []>("blocks_3_cross_attn_ln_weight_to_fp16"), val = tensor<fp16, [512]>(BLOBFILE(path = tensor<string, []>("@model_path/weights/weight.bin"), offset = tensor<uint64, []>(81296768)))];
            tensor<fp16, [512]> blocks_3_cross_attn_ln_bias_to_fp16 = const()[name = tensor<string, []>("blocks_3_cross_attn_ln_bias_to_fp16"), val = tensor<fp16, [512]>(BLOBFILE(path = tensor<string, []>("@model_path/weights/weight.bin"), offset = tensor<uint64, []>(81297856)))];
            tensor<fp16, [1, ?, 512]> input_83_cast_fp16 = layer_norm(axes = input_83_axes_0, beta = blocks_3_cross_attn_ln_bias_to_fp16, epsilon = var_460_to_fp16, gamma = blocks_3_cross_attn_ln_weight_to_fp16, x = input_81_cast_fp16)[name = tensor<string, []>("input_83_cast_fp16")];
            tensor<fp16, [512, 512]> blocks_3_cross_attn_query_weight_to_fp16 = const()[name = tensor<string, []>("blocks_3_cross_attn_query_weight_to_fp16"), val = tensor<fp16, [512, 512]>(BLOBFILE(path = tensor<string, []>("@model_path/weights/weight.bin"), offset = tensor<uint64, []>(81298944)))];
            tensor<fp16, [512]> blocks_3_cross_attn_query_bias_to_fp16 = const()[name = tensor<string, []>("blocks_3_cross_attn_query_bias_to_fp16"), val = tensor<fp16, [512]>(BLOBFILE(path = tensor<string, []>("@model_path/weights/weight.bin"), offset = tensor<uint64, []>(81823296)))];
            tensor<fp16, [1, ?, 512]> linear_34_cast_fp16 = linear(bias = blocks_3_cross_attn_query_bias_to_fp16, weight = blocks_3_cross_attn_query_weight_to_fp16, x = input_83_cast_fp16)[name = tensor<string, []>("linear_34_cast_fp16")];
            tensor<fp16, [512, 512]> blocks_3_cross_attn_key_weight_to_fp16 = const()[name = tensor<string, []>("blocks_3_cross_attn_key_weight_to_fp16"), val = tensor<fp16, [512, 512]>(BLOBFILE(path = tensor<string, []>("@model_path/weights/weight.bin"), offset = tensor<uint64, []>(81824384)))];
            tensor<fp16, [1, 1500, 512]> linear_35_cast_fp16 = linear(bias = linear_1_bias_0_to_fp16, weight = blocks_3_cross_attn_key_weight_to_fp16, x = encoder_output_embeds)[name = tensor<string, []>("linear_35_cast_fp16")];
            tensor<fp16, [512, 512]> blocks_3_cross_attn_value_weight_to_fp16 = const()[name = tensor<string, []>("blocks_3_cross_attn_value_weight_to_fp16"), val = tensor<fp16, [512, 512]>(BLOBFILE(path = tensor<string, []>("@model_path/weights/weight.bin"), offset = tensor<uint64, []>(82348736)))];
            tensor<fp16, [512]> blocks_3_cross_attn_value_bias_to_fp16 = const()[name = tensor<string, []>("blocks_3_cross_attn_value_bias_to_fp16"), val = tensor<fp16, [512]>(BLOBFILE(path = tensor<string, []>("@model_path/weights/weight.bin"), offset = tensor<uint64, []>(82873088)))];
            tensor<fp16, [1, 1500, 512]> linear_36_cast_fp16 = linear(bias = blocks_3_cross_attn_value_bias_to_fp16, weight = blocks_3_cross_attn_value_weight_to_fp16, x = encoder_output_embeds)[name = tensor<string, []>("linear_36_cast_fp16")];
            tensor<int32, [4]> concat_31x = const()[name = tensor<string, []>("concat_31x"), val = tensor<int32, [4]>([1, -1, 8, 64])];
            tensor<fp16, [1, ?, 8, 64]> var_547_cast_fp16 = reshape(shape = concat_31x, x = linear_34_cast_fp16)[name = tensor<string, []>("op_547_cast_fp16")];
            tensor<fp16, [1, 1, 1, 1]> const_20_to_fp16 = const()[name = tensor<string, []>("const_20_to_fp16"), val = tensor<fp16, [1, 1, 1, 1]>([[[[0x1.6ap-2]]]])];
            tensor<fp16, [1, ?, 8, 64]> q_31_cast_fp16 = mul(x = var_547_cast_fp16, y = const_20_to_fp16)[name = tensor<string, []>("q_31_cast_fp16")];
            tensor<int32, [4]> var_552 = const()[name = tensor<string, []>("op_552"), val = tensor<int32, [4]>([1, 1500, 8, 64])];
            tensor<fp16, [1, 1500, 8, 64]> var_553_cast_fp16 = reshape(shape = var_552, x = linear_35_cast_fp16)[name = tensor<string, []>("op_553_cast_fp16")];
            tensor<fp16, [1, 1, 1, 1]> const_21_to_fp16 = const()[name = tensor<string, []>("const_21_to_fp16"), val = tensor<fp16, [1, 1, 1, 1]>([[[[0x1.6ap-2]]]])];
            tensor<fp16, [1, 1500, 8, 64]> k_31_cast_fp16 = mul(x = var_553_cast_fp16, y = const_21_to_fp16)[name = tensor<string, []>("k_31_cast_fp16")];
            tensor<int32, [4]> var_557 = const()[name = tensor<string, []>("op_557"), val = tensor<int32, [4]>([1, 1500, 8, 64])];
            tensor<fp16, [1, 1500, 8, 64]> var_558_cast_fp16 = reshape(shape = var_557, x = linear_36_cast_fp16)[name = tensor<string, []>("op_558_cast_fp16")];
            tensor<int32, [4]> var_559 = const()[name = tensor<string, []>("op_559"), val = tensor<int32, [4]>([0, 2, 1, 3])];
            tensor<bool, []> input_85_transpose_x_0 = const()[name = tensor<string, []>("input_85_transpose_x_0"), val = tensor<bool, []>(false)];
            tensor<bool, []> input_85_transpose_y_0 = const()[name = tensor<string, []>("input_85_transpose_y_0"), val = tensor<bool, []>(false)];
            tensor<int32, [4]> transpose_63_perm_0 = const()[name = tensor<string, []>("transpose_63_perm_0"), val = tensor<int32, [4]>([0, 2, -3, -1])];
            tensor<int32, [4]> transpose_64_perm_0 = const()[name = tensor<string, []>("transpose_64_perm_0"), val = tensor<int32, [4]>([0, 2, -1, -3])];
            tensor<fp16, [1, 8, 64, 1500]> transpose_64 = transpose(perm = transpose_64_perm_0, x = k_31_cast_fp16)[name = tensor<string, []>("transpose_90")];
            tensor<fp16, [1, 8, ?, 64]> transpose_63 = transpose(perm = transpose_63_perm_0, x = q_31_cast_fp16)[name = tensor<string, []>("transpose_91")];
            tensor<fp16, [1, 8, ?, 1500]> input_85_cast_fp16 = matmul(transpose_x = input_85_transpose_x_0, transpose_y = input_85_transpose_y_0, x = transpose_63, y = transpose_64)[name = tensor<string, []>("input_85_cast_fp16")];
            tensor<fp16, [1, 8, ?, 1500]> w_15_cast_fp16 = softmax(axis = var_458, x = input_85_cast_fp16)[name = tensor<string, []>("w_15_cast_fp16")];
            tensor<bool, []> var_563_transpose_x_0 = const()[name = tensor<string, []>("op_563_transpose_x_0"), val = tensor<bool, []>(false)];
            tensor<bool, []> var_563_transpose_y_0 = const()[name = tensor<string, []>("op_563_transpose_y_0"), val = tensor<bool, []>(false)];
            tensor<fp16, [1, 8, 1500, 64]> v_31_cast_fp16 = transpose(perm = var_559, x = var_558_cast_fp16)[name = tensor<string, []>("transpose_92")];
            tensor<fp16, [1, 8, ?, 64]> var_563_cast_fp16 = matmul(transpose_x = var_563_transpose_x_0, transpose_y = var_563_transpose_y_0, x = w_15_cast_fp16, y = v_31_cast_fp16)[name = tensor<string, []>("op_563_cast_fp16")];
            tensor<int32, [4]> var_564 = const()[name = tensor<string, []>("op_564"), val = tensor<int32, [4]>([0, 2, 1, 3])];
            tensor<int32, [3]> concat_32x = const()[name = tensor<string, []>("concat_32x"), val = tensor<int32, [3]>([1, -1, 512])];
            tensor<fp16, [1, ?, 8, 64]> var_565_cast_fp16 = transpose(perm = var_564, x = var_563_cast_fp16)[name = tensor<string, []>("transpose_89")];
            tensor<fp16, [1, ?, 512]> input_87_cast_fp16 = reshape(shape = concat_32x, x = var_565_cast_fp16)[name = tensor<string, []>("input_87_cast_fp16")];
            tensor<fp16, [512, 512]> blocks_3_cross_attn_out_weight_to_fp16 = const()[name = tensor<string, []>("blocks_3_cross_attn_out_weight_to_fp16"), val = tensor<fp16, [512, 512]>(BLOBFILE(path = tensor<string, []>("@model_path/weights/weight.bin"), offset = tensor<uint64, []>(82874176)))];
            tensor<fp16, [512]> blocks_3_cross_attn_out_bias_to_fp16 = const()[name = tensor<string, []>("blocks_3_cross_attn_out_bias_to_fp16"), val = tensor<fp16, [512]>(BLOBFILE(path = tensor<string, []>("@model_path/weights/weight.bin"), offset = tensor<uint64, []>(83398528)))];
            tensor<fp16, [1, ?, 512]> linear_37_cast_fp16 = linear(bias = blocks_3_cross_attn_out_bias_to_fp16, weight = blocks_3_cross_attn_out_weight_to_fp16, x = input_87_cast_fp16)[name = tensor<string, []>("linear_37_cast_fp16")];
            tensor<fp16, [1, ?, 512]> input_89_cast_fp16 = add(x = input_81_cast_fp16, y = linear_37_cast_fp16)[name = tensor<string, []>("input_89_cast_fp16")];
            tensor<int32, [1]> input_91_axes_0 = const()[name = tensor<string, []>("input_91_axes_0"), val = tensor<int32, [1]>([-1])];
            tensor<fp16, [512]> blocks_3_mlp_ln_weight_to_fp16 = const()[name = tensor<string, []>("blocks_3_mlp_ln_weight_to_fp16"), val = tensor<fp16, [512]>(BLOBFILE(path = tensor<string, []>("@model_path/weights/weight.bin"), offset = tensor<uint64, []>(83399616)))];
            tensor<fp16, [512]> blocks_3_mlp_ln_bias_to_fp16 = const()[name = tensor<string, []>("blocks_3_mlp_ln_bias_to_fp16"), val = tensor<fp16, [512]>(BLOBFILE(path = tensor<string, []>("@model_path/weights/weight.bin"), offset = tensor<uint64, []>(83400704)))];
            tensor<fp16, [1, ?, 512]> input_91_cast_fp16 = layer_norm(axes = input_91_axes_0, beta = blocks_3_mlp_ln_bias_to_fp16, epsilon = var_460_to_fp16, gamma = blocks_3_mlp_ln_weight_to_fp16, x = input_89_cast_fp16)[name = tensor<string, []>("input_91_cast_fp16")];
            tensor<fp16, [2048, 512]> blocks_3_mlp_0_weight_to_fp16 = const()[name = tensor<string, []>("blocks_3_mlp_0_weight_to_fp16"), val = tensor<fp16, [2048, 512]>(BLOBFILE(path = tensor<string, []>("@model_path/weights/weight.bin"), offset = tensor<uint64, []>(83401792)))];
            tensor<fp16, [2048]> blocks_3_mlp_0_bias_to_fp16 = const()[name = tensor<string, []>("blocks_3_mlp_0_bias_to_fp16"), val = tensor<fp16, [2048]>(BLOBFILE(path = tensor<string, []>("@model_path/weights/weight.bin"), offset = tensor<uint64, []>(85499008)))];
            tensor<fp16, [1, ?, 2048]> linear_38_cast_fp16 = linear(bias = blocks_3_mlp_0_bias_to_fp16, weight = blocks_3_mlp_0_weight_to_fp16, x = input_91_cast_fp16)[name = tensor<string, []>("linear_38_cast_fp16")];
            tensor<string, []> input_95_mode_0 = const()[name = tensor<string, []>("input_95_mode_0"), val = tensor<string, []>("EXACT")];
            tensor<fp16, [1, ?, 2048]> input_95_cast_fp16 = gelu(mode = input_95_mode_0, x = linear_38_cast_fp16)[name = tensor<string, []>("input_95_cast_fp16")];
            tensor<fp16, [512, 2048]> blocks_3_mlp_2_weight_to_fp16 = const()[name = tensor<string, []>("blocks_3_mlp_2_weight_to_fp16"), val = tensor<fp16, [512, 2048]>(BLOBFILE(path = tensor<string, []>("@model_path/weights/weight.bin"), offset = tensor<uint64, []>(85503168)))];
            tensor<fp16, [512]> blocks_3_mlp_2_bias_to_fp16 = const()[name = tensor<string, []>("blocks_3_mlp_2_bias_to_fp16"), val = tensor<fp16, [512]>(BLOBFILE(path = tensor<string, []>("@model_path/weights/weight.bin"), offset = tensor<uint64, []>(87600384)))];
            tensor<fp16, [1, ?, 512]> linear_39_cast_fp16 = linear(bias = blocks_3_mlp_2_bias_to_fp16, weight = blocks_3_mlp_2_weight_to_fp16, x = input_95_cast_fp16)[name = tensor<string, []>("linear_39_cast_fp16")];
            tensor<fp16, [1, ?, 512]> input_97_cast_fp16 = add(x = input_89_cast_fp16, y = linear_39_cast_fp16)[name = tensor<string, []>("input_97_cast_fp16")];
            tensor<int32, []> var_594 = const()[name = tensor<string, []>("op_594"), val = tensor<int32, []>(-1)];
            tensor<int32, [1]> input_99_axes_0 = const()[name = tensor<string, []>("input_99_axes_0"), val = tensor<int32, [1]>([-1])];
            tensor<fp16, [512]> blocks_4_attn_ln_weight_to_fp16 = const()[name = tensor<string, []>("blocks_4_attn_ln_weight_to_fp16"), val = tensor<fp16, [512]>(BLOBFILE(path = tensor<string, []>("@model_path/weights/weight.bin"), offset = tensor<uint64, []>(87601472)))];
            tensor<fp16, [512]> blocks_4_attn_ln_bias_to_fp16 = const()[name = tensor<string, []>("blocks_4_attn_ln_bias_to_fp16"), val = tensor<fp16, [512]>(BLOBFILE(path = tensor<string, []>("@model_path/weights/weight.bin"), offset = tensor<uint64, []>(87602560)))];
            tensor<fp16, []> var_596_to_fp16 = const()[name = tensor<string, []>("op_596_to_fp16"), val = tensor<fp16, []>(0x1.5p-17)];
            tensor<fp16, [1, ?, 512]> input_99_cast_fp16 = layer_norm(axes = input_99_axes_0, beta = blocks_4_attn_ln_bias_to_fp16, epsilon = var_596_to_fp16, gamma = blocks_4_attn_ln_weight_to_fp16, x = input_97_cast_fp16)[name = tensor<string, []>("input_99_cast_fp16")];
            tensor<fp16, [512, 512]> blocks_4_attn_query_weight_to_fp16 = const()[name = tensor<string, []>("blocks_4_attn_query_weight_to_fp16"), val = tensor<fp16, [512, 512]>(BLOBFILE(path = tensor<string, []>("@model_path/weights/weight.bin"), offset = tensor<uint64, []>(87603648)))];
            tensor<fp16, [512]> blocks_4_attn_query_bias_to_fp16 = const()[name = tensor<string, []>("blocks_4_attn_query_bias_to_fp16"), val = tensor<fp16, [512]>(BLOBFILE(path = tensor<string, []>("@model_path/weights/weight.bin"), offset = tensor<uint64, []>(88128000)))];
            tensor<fp16, [1, ?, 512]> linear_40_cast_fp16 = linear(bias = blocks_4_attn_query_bias_to_fp16, weight = blocks_4_attn_query_weight_to_fp16, x = input_99_cast_fp16)[name = tensor<string, []>("linear_40_cast_fp16")];
            tensor<fp16, [512, 512]> blocks_4_attn_key_weight_to_fp16 = const()[name = tensor<string, []>("blocks_4_attn_key_weight_to_fp16"), val = tensor<fp16, [512, 512]>(BLOBFILE(path = tensor<string, []>("@model_path/weights/weight.bin"), offset = tensor<uint64, []>(88129088)))];
            tensor<fp16, [1, ?, 512]> linear_41_cast_fp16 = linear(bias = linear_1_bias_0_to_fp16, weight = blocks_4_attn_key_weight_to_fp16, x = input_99_cast_fp16)[name = tensor<string, []>("linear_41_cast_fp16")];
            tensor<fp16, [512, 512]> blocks_4_attn_value_weight_to_fp16 = const()[name = tensor<string, []>("blocks_4_attn_value_weight_to_fp16"), val = tensor<fp16, [512, 512]>(BLOBFILE(path = tensor<string, []>("@model_path/weights/weight.bin"), offset = tensor<uint64, []>(88653440)))];
            tensor<fp16, [512]> blocks_4_attn_value_bias_to_fp16 = const()[name = tensor<string, []>("blocks_4_attn_value_bias_to_fp16"), val = tensor<fp16, [512]>(BLOBFILE(path = tensor<string, []>("@model_path/weights/weight.bin"), offset = tensor<uint64, []>(89177792)))];
            tensor<fp16, [1, ?, 512]> linear_42_cast_fp16 = linear(bias = blocks_4_attn_value_bias_to_fp16, weight = blocks_4_attn_value_weight_to_fp16, x = input_99_cast_fp16)[name = tensor<string, []>("linear_42_cast_fp16")];
            tensor<int32, [3]> var_620_shape_cast_fp16 = shape(x = linear_40_cast_fp16)[name = tensor<string, []>("op_620_shape_cast_fp16")];
            tensor<int32, []> gather_30_axis_0 = const()[name = tensor<string, []>("gather_30_axis_0"), val = tensor<int32, []>(0)];
            tensor<int32, []> gather_30_batch_dims_0 = const()[name = tensor<string, []>("gather_30_batch_dims_0"), val = tensor<int32, []>(0)];
            tensor<bool, []> gather_30_validate_indices_0 = const()[name = tensor<string, []>("gather_30_validate_indices_0"), val = tensor<bool, []>(false)];
            tensor<string, []> var_620_shape_cast_fp16_to_uint16_dtype_0 = const()[name = tensor<string, []>("op_620_shape_cast_fp16_to_uint16_dtype_0"), val = tensor<string, []>("uint16")];
            tensor<uint16, []> gather_30_indices_0_to_uint16 = const()[name = tensor<string, []>("gather_30_indices_0_to_uint16"), val = tensor<uint16, []>(1)];
            tensor<uint16, [3]> var_620_shape_cast_fp16_to_uint16 = cast(dtype = var_620_shape_cast_fp16_to_uint16_dtype_0, x = var_620_shape_cast_fp16)[name = tensor<string, []>("cast_54")];
            tensor<uint16, []> gather_30_cast_uint16 = gather(axis = gather_30_axis_0, batch_dims = gather_30_batch_dims_0, indices = gather_30_indices_0_to_uint16, validate_indices = gather_30_validate_indices_0, x = var_620_shape_cast_fp16_to_uint16)[name = tensor<string, []>("gather_30_cast_uint16")];
            tensor<string, []> gather_30_cast_uint16_to_int32_dtype_0 = const()[name = tensor<string, []>("gather_30_cast_uint16_to_int32_dtype_0"), val = tensor<string, []>("int32")];
            tensor<int32, [4]> concat_33x = const()[name = tensor<string, []>("concat_33x"), val = tensor<int32, [4]>([1, -1, 8, 64])];
            tensor<fp16, [1, ?, 8, 64]> var_630_cast_fp16 = reshape(shape = concat_33x, x = linear_40_cast_fp16)[name = tensor<string, []>("op_630_cast_fp16")];
            tensor<fp16, [1, 1, 1, 1]> const_22_to_fp16 = const()[name = tensor<string, []>("const_22_to_fp16"), val = tensor<fp16, [1, 1, 1, 1]>([[[[0x1.6ap-2]]]])];
            tensor<fp16, [1, ?, 8, 64]> q_35_cast_fp16 = mul(x = var_630_cast_fp16, y = const_22_to_fp16)[name = tensor<string, []>("q_35_cast_fp16")];
            tensor<int32, [4]> concat_34x = const()[name = tensor<string, []>("concat_34x"), val = tensor<int32, [4]>([1, -1, 8, 64])];
            tensor<fp16, [1, ?, 8, 64]> var_636_cast_fp16 = reshape(shape = concat_34x, x = linear_41_cast_fp16)[name = tensor<string, []>("op_636_cast_fp16")];
            tensor<fp16, [1, 1, 1, 1]> const_23_to_fp16 = const()[name = tensor<string, []>("const_23_to_fp16"), val = tensor<fp16, [1, 1, 1, 1]>([[[[0x1.6ap-2]]]])];
            tensor<fp16, [1, ?, 8, 64]> k_35_cast_fp16 = mul(x = var_636_cast_fp16, y = const_23_to_fp16)[name = tensor<string, []>("k_35_cast_fp16")];
            tensor<int32, [4]> concat_35x = const()[name = tensor<string, []>("concat_35x"), val = tensor<int32, [4]>([1, -1, 8, 64])];
            tensor<fp16, [1, ?, 8, 64]> var_641_cast_fp16 = reshape(shape = concat_35x, x = linear_42_cast_fp16)[name = tensor<string, []>("op_641_cast_fp16")];
            tensor<int32, [4]> var_642 = const()[name = tensor<string, []>("op_642"), val = tensor<int32, [4]>([0, 2, 1, 3])];
            tensor<bool, []> qk_9_transpose_x_0 = const()[name = tensor<string, []>("qk_9_transpose_x_0"), val = tensor<bool, []>(false)];
            tensor<bool, []> qk_9_transpose_y_0 = const()[name = tensor<string, []>("qk_9_transpose_y_0"), val = tensor<bool, []>(false)];
            tensor<int32, [4]> transpose_65_perm_0 = const()[name = tensor<string, []>("transpose_65_perm_0"), val = tensor<int32, [4]>([0, 2, -3, -1])];
            tensor<int32, [4]> transpose_66_perm_0 = const()[name = tensor<string, []>("transpose_66_perm_0"), val = tensor<int32, [4]>([0, 2, -1, -3])];
            tensor<fp16, [1, 8, 64, ?]> transpose_66 = transpose(perm = transpose_66_perm_0, x = k_35_cast_fp16)[name = tensor<string, []>("transpose_86")];
            tensor<fp16, [1, 8, ?, 64]> transpose_65 = transpose(perm = transpose_65_perm_0, x = q_35_cast_fp16)[name = tensor<string, []>("transpose_87")];
            tensor<fp16, [1, 8, ?, ?]> qk_9_cast_fp16 = matmul(transpose_x = qk_9_transpose_x_0, transpose_y = qk_9_transpose_y_0, x = transpose_65, y = transpose_66)[name = tensor<string, []>("qk_9_cast_fp16")];
            tensor<int32, []> concat_36_values1_0 = const()[name = tensor<string, []>("concat_36_values1_0"), val = tensor<int32, []>(448)];
            tensor<int32, []> concat_36_axis_0 = const()[name = tensor<string, []>("concat_36_axis_0"), val = tensor<int32, []>(0)];
            tensor<bool, []> concat_36_interleave_0 = const()[name = tensor<string, []>("concat_36_interleave_0"), val = tensor<bool, []>(false)];
            tensor<int32, []> gather_30_cast_uint16_to_int32 = cast(dtype = gather_30_cast_uint16_to_int32_dtype_0, x = gather_30_cast_uint16)[name = tensor<string, []>("cast_53")];
            tensor<int32, [2]> concat_36 = concat(axis = concat_36_axis_0, interleave = concat_36_interleave_0, values = (gather_30_cast_uint16_to_int32, concat_36_values1_0))[name = tensor<string, []>("concat_36")];
            tensor<int32, [2]> var_645_begin_0 = const()[name = tensor<string, []>("op_645_begin_0"), val = tensor<int32, [2]>([0, 0])];
            tensor<bool, [2]> var_645_end_mask_0 = const()[name = tensor<string, []>("op_645_end_mask_0"), val = tensor<bool, [2]>([false, true])];
            tensor<fp16, [?, 448]> var_645_cast_fp16 = slice_by_index(begin = var_645_begin_0, end = concat_36, end_mask = var_645_end_mask_0, x = mask_to_fp16)[name = tensor<string, []>("op_645_cast_fp16")];
            tensor<int32, []> concat_37_values0_0 = const()[name = tensor<string, []>("concat_37_values0_0"), val = tensor<int32, []>(0)];
            tensor<int32, []> concat_37_axis_0 = const()[name = tensor<string, []>("concat_37_axis_0"), val = tensor<int32, []>(0)];
            tensor<bool, []> concat_37_interleave_0 = const()[name = tensor<string, []>("concat_37_interleave_0"), val = tensor<bool, []>(false)];
            tensor<int32, [2]> concat_37 = concat(axis = concat_37_axis_0, interleave = concat_37_interleave_0, values = (concat_37_values0_0, gather_30_cast_uint16_to_int32))[name = tensor<string, []>("concat_37")];
            tensor<int32, [2]> var_646_begin_0 = const()[name = tensor<string, []>("op_646_begin_0"), val = tensor<int32, [2]>([0, 0])];
            tensor<bool, [2]> var_646_end_mask_0 = const()[name = tensor<string, []>("op_646_end_mask_0"), val = tensor<bool, [2]>([true, false])];
            tensor<fp16, [?, ?]> var_646_cast_fp16 = slice_by_index(begin = var_646_begin_0, end = concat_37, end_mask = var_646_end_mask_0, x = var_645_cast_fp16)[name = tensor<string, []>("op_646_cast_fp16")];
            tensor<fp16, [1, 8, ?, ?]> input_101_cast_fp16 = add(x = qk_9_cast_fp16, y = var_646_cast_fp16)[name = tensor<string, []>("input_101_cast_fp16")];
            tensor<fp16, [1, 8, ?, ?]> w_17_cast_fp16 = softmax(axis = var_594, x = input_101_cast_fp16)[name = tensor<string, []>("w_17_cast_fp16")];
            tensor<bool, []> var_649_transpose_x_0 = const()[name = tensor<string, []>("op_649_transpose_x_0"), val = tensor<bool, []>(false)];
            tensor<bool, []> var_649_transpose_y_0 = const()[name = tensor<string, []>("op_649_transpose_y_0"), val = tensor<bool, []>(false)];
            tensor<fp16, [1, 8, ?, 64]> v_35_cast_fp16 = transpose(perm = var_642, x = var_641_cast_fp16)[name = tensor<string, []>("transpose_88")];
            tensor<fp16, [1, 8, ?, 64]> var_649_cast_fp16 = matmul(transpose_x = var_649_transpose_x_0, transpose_y = var_649_transpose_y_0, x = w_17_cast_fp16, y = v_35_cast_fp16)[name = tensor<string, []>("op_649_cast_fp16")];
            tensor<int32, [4]> var_650 = const()[name = tensor<string, []>("op_650"), val = tensor<int32, [4]>([0, 2, 1, 3])];
            tensor<int32, [3]> concat_38x = const()[name = tensor<string, []>("concat_38x"), val = tensor<int32, [3]>([1, -1, 512])];
            tensor<fp16, [1, ?, 8, 64]> var_651_cast_fp16 = transpose(perm = var_650, x = var_649_cast_fp16)[name = tensor<string, []>("transpose_85")];
            tensor<fp16, [1, ?, 512]> input_103_cast_fp16 = reshape(shape = concat_38x, x = var_651_cast_fp16)[name = tensor<string, []>("input_103_cast_fp16")];
            tensor<fp16, [512, 512]> blocks_4_attn_out_weight_to_fp16 = const()[name = tensor<string, []>("blocks_4_attn_out_weight_to_fp16"), val = tensor<fp16, [512, 512]>(BLOBFILE(path = tensor<string, []>("@model_path/weights/weight.bin"), offset = tensor<uint64, []>(89178880)))];
            tensor<fp16, [512]> blocks_4_attn_out_bias_to_fp16 = const()[name = tensor<string, []>("blocks_4_attn_out_bias_to_fp16"), val = tensor<fp16, [512]>(BLOBFILE(path = tensor<string, []>("@model_path/weights/weight.bin"), offset = tensor<uint64, []>(89703232)))];
            tensor<fp16, [1, ?, 512]> linear_43_cast_fp16 = linear(bias = blocks_4_attn_out_bias_to_fp16, weight = blocks_4_attn_out_weight_to_fp16, x = input_103_cast_fp16)[name = tensor<string, []>("linear_43_cast_fp16")];
            tensor<fp16, [1, ?, 512]> input_105_cast_fp16 = add(x = input_97_cast_fp16, y = linear_43_cast_fp16)[name = tensor<string, []>("input_105_cast_fp16")];
            tensor<int32, [1]> input_107_axes_0 = const()[name = tensor<string, []>("input_107_axes_0"), val = tensor<int32, [1]>([-1])];
            tensor<fp16, [512]> blocks_4_cross_attn_ln_weight_to_fp16 = const()[name = tensor<string, []>("blocks_4_cross_attn_ln_weight_to_fp16"), val = tensor<fp16, [512]>(BLOBFILE(path = tensor<string, []>("@model_path/weights/weight.bin"), offset = tensor<uint64, []>(89704320)))];
            tensor<fp16, [512]> blocks_4_cross_attn_ln_bias_to_fp16 = const()[name = tensor<string, []>("blocks_4_cross_attn_ln_bias_to_fp16"), val = tensor<fp16, [512]>(BLOBFILE(path = tensor<string, []>("@model_path/weights/weight.bin"), offset = tensor<uint64, []>(89705408)))];
            tensor<fp16, [1, ?, 512]> input_107_cast_fp16 = layer_norm(axes = input_107_axes_0, beta = blocks_4_cross_attn_ln_bias_to_fp16, epsilon = var_596_to_fp16, gamma = blocks_4_cross_attn_ln_weight_to_fp16, x = input_105_cast_fp16)[name = tensor<string, []>("input_107_cast_fp16")];
            tensor<fp16, [512, 512]> blocks_4_cross_attn_query_weight_to_fp16 = const()[name = tensor<string, []>("blocks_4_cross_attn_query_weight_to_fp16"), val = tensor<fp16, [512, 512]>(BLOBFILE(path = tensor<string, []>("@model_path/weights/weight.bin"), offset = tensor<uint64, []>(89706496)))];
            tensor<fp16, [512]> blocks_4_cross_attn_query_bias_to_fp16 = const()[name = tensor<string, []>("blocks_4_cross_attn_query_bias_to_fp16"), val = tensor<fp16, [512]>(BLOBFILE(path = tensor<string, []>("@model_path/weights/weight.bin"), offset = tensor<uint64, []>(90230848)))];
            tensor<fp16, [1, ?, 512]> linear_44_cast_fp16 = linear(bias = blocks_4_cross_attn_query_bias_to_fp16, weight = blocks_4_cross_attn_query_weight_to_fp16, x = input_107_cast_fp16)[name = tensor<string, []>("linear_44_cast_fp16")];
            tensor<fp16, [512, 512]> blocks_4_cross_attn_key_weight_to_fp16 = const()[name = tensor<string, []>("blocks_4_cross_attn_key_weight_to_fp16"), val = tensor<fp16, [512, 512]>(BLOBFILE(path = tensor<string, []>("@model_path/weights/weight.bin"), offset = tensor<uint64, []>(90231936)))];
            tensor<fp16, [1, 1500, 512]> linear_45_cast_fp16 = linear(bias = linear_1_bias_0_to_fp16, weight = blocks_4_cross_attn_key_weight_to_fp16, x = encoder_output_embeds)[name = tensor<string, []>("linear_45_cast_fp16")];
            tensor<fp16, [512, 512]> blocks_4_cross_attn_value_weight_to_fp16 = const()[name = tensor<string, []>("blocks_4_cross_attn_value_weight_to_fp16"), val = tensor<fp16, [512, 512]>(BLOBFILE(path = tensor<string, []>("@model_path/weights/weight.bin"), offset = tensor<uint64, []>(90756288)))];
            tensor<fp16, [512]> blocks_4_cross_attn_value_bias_to_fp16 = const()[name = tensor<string, []>("blocks_4_cross_attn_value_bias_to_fp16"), val = tensor<fp16, [512]>(BLOBFILE(path = tensor<string, []>("@model_path/weights/weight.bin"), offset = tensor<uint64, []>(91280640)))];
            tensor<fp16, [1, 1500, 512]> linear_46_cast_fp16 = linear(bias = blocks_4_cross_attn_value_bias_to_fp16, weight = blocks_4_cross_attn_value_weight_to_fp16, x = encoder_output_embeds)[name = tensor<string, []>("linear_46_cast_fp16")];
            tensor<int32, [4]> concat_39x = const()[name = tensor<string, []>("concat_39x"), val = tensor<int32, [4]>([1, -1, 8, 64])];
            tensor<fp16, [1, ?, 8, 64]> var_683_cast_fp16 = reshape(shape = concat_39x, x = linear_44_cast_fp16)[name = tensor<string, []>("op_683_cast_fp16")];
            tensor<fp16, [1, 1, 1, 1]> const_24_to_fp16 = const()[name = tensor<string, []>("const_24_to_fp16"), val = tensor<fp16, [1, 1, 1, 1]>([[[[0x1.6ap-2]]]])];
            tensor<fp16, [1, ?, 8, 64]> q_39_cast_fp16 = mul(x = var_683_cast_fp16, y = const_24_to_fp16)[name = tensor<string, []>("q_39_cast_fp16")];
            tensor<int32, [4]> var_688 = const()[name = tensor<string, []>("op_688"), val = tensor<int32, [4]>([1, 1500, 8, 64])];
            tensor<fp16, [1, 1500, 8, 64]> var_689_cast_fp16 = reshape(shape = var_688, x = linear_45_cast_fp16)[name = tensor<string, []>("op_689_cast_fp16")];
            tensor<fp16, [1, 1, 1, 1]> const_25_to_fp16 = const()[name = tensor<string, []>("const_25_to_fp16"), val = tensor<fp16, [1, 1, 1, 1]>([[[[0x1.6ap-2]]]])];
            tensor<fp16, [1, 1500, 8, 64]> k_39_cast_fp16 = mul(x = var_689_cast_fp16, y = const_25_to_fp16)[name = tensor<string, []>("k_39_cast_fp16")];
            tensor<int32, [4]> var_693 = const()[name = tensor<string, []>("op_693"), val = tensor<int32, [4]>([1, 1500, 8, 64])];
            tensor<fp16, [1, 1500, 8, 64]> var_694_cast_fp16 = reshape(shape = var_693, x = linear_46_cast_fp16)[name = tensor<string, []>("op_694_cast_fp16")];
            tensor<int32, [4]> var_695 = const()[name = tensor<string, []>("op_695"), val = tensor<int32, [4]>([0, 2, 1, 3])];
            tensor<bool, []> input_109_transpose_x_0 = const()[name = tensor<string, []>("input_109_transpose_x_0"), val = tensor<bool, []>(false)];
            tensor<bool, []> input_109_transpose_y_0 = const()[name = tensor<string, []>("input_109_transpose_y_0"), val = tensor<bool, []>(false)];
            tensor<int32, [4]> transpose_67_perm_0 = const()[name = tensor<string, []>("transpose_67_perm_0"), val = tensor<int32, [4]>([0, 2, -3, -1])];
            tensor<int32, [4]> transpose_68_perm_0 = const()[name = tensor<string, []>("transpose_68_perm_0"), val = tensor<int32, [4]>([0, 2, -1, -3])];
            tensor<fp16, [1, 8, 64, 1500]> transpose_68 = transpose(perm = transpose_68_perm_0, x = k_39_cast_fp16)[name = tensor<string, []>("transpose_82")];
            tensor<fp16, [1, 8, ?, 64]> transpose_67 = transpose(perm = transpose_67_perm_0, x = q_39_cast_fp16)[name = tensor<string, []>("transpose_83")];
            tensor<fp16, [1, 8, ?, 1500]> input_109_cast_fp16 = matmul(transpose_x = input_109_transpose_x_0, transpose_y = input_109_transpose_y_0, x = transpose_67, y = transpose_68)[name = tensor<string, []>("input_109_cast_fp16")];
            tensor<fp16, [1, 8, ?, 1500]> w_19_cast_fp16 = softmax(axis = var_594, x = input_109_cast_fp16)[name = tensor<string, []>("w_19_cast_fp16")];
            tensor<bool, []> var_699_transpose_x_0 = const()[name = tensor<string, []>("op_699_transpose_x_0"), val = tensor<bool, []>(false)];
            tensor<bool, []> var_699_transpose_y_0 = const()[name = tensor<string, []>("op_699_transpose_y_0"), val = tensor<bool, []>(false)];
            tensor<fp16, [1, 8, 1500, 64]> v_39_cast_fp16 = transpose(perm = var_695, x = var_694_cast_fp16)[name = tensor<string, []>("transpose_84")];
            tensor<fp16, [1, 8, ?, 64]> var_699_cast_fp16 = matmul(transpose_x = var_699_transpose_x_0, transpose_y = var_699_transpose_y_0, x = w_19_cast_fp16, y = v_39_cast_fp16)[name = tensor<string, []>("op_699_cast_fp16")];
            tensor<int32, [4]> var_700 = const()[name = tensor<string, []>("op_700"), val = tensor<int32, [4]>([0, 2, 1, 3])];
            tensor<int32, [3]> concat_40x = const()[name = tensor<string, []>("concat_40x"), val = tensor<int32, [3]>([1, -1, 512])];
            tensor<fp16, [1, ?, 8, 64]> var_701_cast_fp16 = transpose(perm = var_700, x = var_699_cast_fp16)[name = tensor<string, []>("transpose_81")];
            tensor<fp16, [1, ?, 512]> input_111_cast_fp16 = reshape(shape = concat_40x, x = var_701_cast_fp16)[name = tensor<string, []>("input_111_cast_fp16")];
            tensor<fp16, [512, 512]> blocks_4_cross_attn_out_weight_to_fp16 = const()[name = tensor<string, []>("blocks_4_cross_attn_out_weight_to_fp16"), val = tensor<fp16, [512, 512]>(BLOBFILE(path = tensor<string, []>("@model_path/weights/weight.bin"), offset = tensor<uint64, []>(91281728)))];
            tensor<fp16, [512]> blocks_4_cross_attn_out_bias_to_fp16 = const()[name = tensor<string, []>("blocks_4_cross_attn_out_bias_to_fp16"), val = tensor<fp16, [512]>(BLOBFILE(path = tensor<string, []>("@model_path/weights/weight.bin"), offset = tensor<uint64, []>(91806080)))];
            tensor<fp16, [1, ?, 512]> linear_47_cast_fp16 = linear(bias = blocks_4_cross_attn_out_bias_to_fp16, weight = blocks_4_cross_attn_out_weight_to_fp16, x = input_111_cast_fp16)[name = tensor<string, []>("linear_47_cast_fp16")];
            tensor<fp16, [1, ?, 512]> input_113_cast_fp16 = add(x = input_105_cast_fp16, y = linear_47_cast_fp16)[name = tensor<string, []>("input_113_cast_fp16")];
            tensor<int32, [1]> input_115_axes_0 = const()[name = tensor<string, []>("input_115_axes_0"), val = tensor<int32, [1]>([-1])];
            tensor<fp16, [512]> blocks_4_mlp_ln_weight_to_fp16 = const()[name = tensor<string, []>("blocks_4_mlp_ln_weight_to_fp16"), val = tensor<fp16, [512]>(BLOBFILE(path = tensor<string, []>("@model_path/weights/weight.bin"), offset = tensor<uint64, []>(91807168)))];
            tensor<fp16, [512]> blocks_4_mlp_ln_bias_to_fp16 = const()[name = tensor<string, []>("blocks_4_mlp_ln_bias_to_fp16"), val = tensor<fp16, [512]>(BLOBFILE(path = tensor<string, []>("@model_path/weights/weight.bin"), offset = tensor<uint64, []>(91808256)))];
            tensor<fp16, [1, ?, 512]> input_115_cast_fp16 = layer_norm(axes = input_115_axes_0, beta = blocks_4_mlp_ln_bias_to_fp16, epsilon = var_596_to_fp16, gamma = blocks_4_mlp_ln_weight_to_fp16, x = input_113_cast_fp16)[name = tensor<string, []>("input_115_cast_fp16")];
            tensor<fp16, [2048, 512]> blocks_4_mlp_0_weight_to_fp16 = const()[name = tensor<string, []>("blocks_4_mlp_0_weight_to_fp16"), val = tensor<fp16, [2048, 512]>(BLOBFILE(path = tensor<string, []>("@model_path/weights/weight.bin"), offset = tensor<uint64, []>(91809344)))];
            tensor<fp16, [2048]> blocks_4_mlp_0_bias_to_fp16 = const()[name = tensor<string, []>("blocks_4_mlp_0_bias_to_fp16"), val = tensor<fp16, [2048]>(BLOBFILE(path = tensor<string, []>("@model_path/weights/weight.bin"), offset = tensor<uint64, []>(93906560)))];
            tensor<fp16, [1, ?, 2048]> linear_48_cast_fp16 = linear(bias = blocks_4_mlp_0_bias_to_fp16, weight = blocks_4_mlp_0_weight_to_fp16, x = input_115_cast_fp16)[name = tensor<string, []>("linear_48_cast_fp16")];
            tensor<string, []> input_119_mode_0 = const()[name = tensor<string, []>("input_119_mode_0"), val = tensor<string, []>("EXACT")];
            tensor<fp16, [1, ?, 2048]> input_119_cast_fp16 = gelu(mode = input_119_mode_0, x = linear_48_cast_fp16)[name = tensor<string, []>("input_119_cast_fp16")];
            tensor<fp16, [512, 2048]> blocks_4_mlp_2_weight_to_fp16 = const()[name = tensor<string, []>("blocks_4_mlp_2_weight_to_fp16"), val = tensor<fp16, [512, 2048]>(BLOBFILE(path = tensor<string, []>("@model_path/weights/weight.bin"), offset = tensor<uint64, []>(93910720)))];
            tensor<fp16, [512]> blocks_4_mlp_2_bias_to_fp16 = const()[name = tensor<string, []>("blocks_4_mlp_2_bias_to_fp16"), val = tensor<fp16, [512]>(BLOBFILE(path = tensor<string, []>("@model_path/weights/weight.bin"), offset = tensor<uint64, []>(96007936)))];
            tensor<fp16, [1, ?, 512]> linear_49_cast_fp16 = linear(bias = blocks_4_mlp_2_bias_to_fp16, weight = blocks_4_mlp_2_weight_to_fp16, x = input_119_cast_fp16)[name = tensor<string, []>("linear_49_cast_fp16")];
            tensor<fp16, [1, ?, 512]> input_121_cast_fp16 = add(x = input_113_cast_fp16, y = linear_49_cast_fp16)[name = tensor<string, []>("input_121_cast_fp16")];
            tensor<int32, []> var_730 = const()[name = tensor<string, []>("op_730"), val = tensor<int32, []>(-1)];
            tensor<int32, [1]> input_123_axes_0 = const()[name = tensor<string, []>("input_123_axes_0"), val = tensor<int32, [1]>([-1])];
            tensor<fp16, [512]> blocks_5_attn_ln_weight_to_fp16 = const()[name = tensor<string, []>("blocks_5_attn_ln_weight_to_fp16"), val = tensor<fp16, [512]>(BLOBFILE(path = tensor<string, []>("@model_path/weights/weight.bin"), offset = tensor<uint64, []>(96009024)))];
            tensor<fp16, [512]> blocks_5_attn_ln_bias_to_fp16 = const()[name = tensor<string, []>("blocks_5_attn_ln_bias_to_fp16"), val = tensor<fp16, [512]>(BLOBFILE(path = tensor<string, []>("@model_path/weights/weight.bin"), offset = tensor<uint64, []>(96010112)))];
            tensor<fp16, []> var_732_to_fp16 = const()[name = tensor<string, []>("op_732_to_fp16"), val = tensor<fp16, []>(0x1.5p-17)];
            tensor<fp16, [1, ?, 512]> input_123_cast_fp16 = layer_norm(axes = input_123_axes_0, beta = blocks_5_attn_ln_bias_to_fp16, epsilon = var_732_to_fp16, gamma = blocks_5_attn_ln_weight_to_fp16, x = input_121_cast_fp16)[name = tensor<string, []>("input_123_cast_fp16")];
            tensor<fp16, [512, 512]> blocks_5_attn_query_weight_to_fp16 = const()[name = tensor<string, []>("blocks_5_attn_query_weight_to_fp16"), val = tensor<fp16, [512, 512]>(BLOBFILE(path = tensor<string, []>("@model_path/weights/weight.bin"), offset = tensor<uint64, []>(96011200)))];
            tensor<fp16, [512]> blocks_5_attn_query_bias_to_fp16 = const()[name = tensor<string, []>("blocks_5_attn_query_bias_to_fp16"), val = tensor<fp16, [512]>(BLOBFILE(path = tensor<string, []>("@model_path/weights/weight.bin"), offset = tensor<uint64, []>(96535552)))];
            tensor<fp16, [1, ?, 512]> linear_50_cast_fp16 = linear(bias = blocks_5_attn_query_bias_to_fp16, weight = blocks_5_attn_query_weight_to_fp16, x = input_123_cast_fp16)[name = tensor<string, []>("linear_50_cast_fp16")];
            tensor<fp16, [512, 512]> blocks_5_attn_key_weight_to_fp16 = const()[name = tensor<string, []>("blocks_5_attn_key_weight_to_fp16"), val = tensor<fp16, [512, 512]>(BLOBFILE(path = tensor<string, []>("@model_path/weights/weight.bin"), offset = tensor<uint64, []>(96536640)))];
            tensor<fp16, [1, ?, 512]> linear_51_cast_fp16 = linear(bias = linear_1_bias_0_to_fp16, weight = blocks_5_attn_key_weight_to_fp16, x = input_123_cast_fp16)[name = tensor<string, []>("linear_51_cast_fp16")];
            tensor<fp16, [512, 512]> blocks_5_attn_value_weight_to_fp16 = const()[name = tensor<string, []>("blocks_5_attn_value_weight_to_fp16"), val = tensor<fp16, [512, 512]>(BLOBFILE(path = tensor<string, []>("@model_path/weights/weight.bin"), offset = tensor<uint64, []>(97060992)))];
            tensor<fp16, [512]> blocks_5_attn_value_bias_to_fp16 = const()[name = tensor<string, []>("blocks_5_attn_value_bias_to_fp16"), val = tensor<fp16, [512]>(BLOBFILE(path = tensor<string, []>("@model_path/weights/weight.bin"), offset = tensor<uint64, []>(97585344)))];
            tensor<fp16, [1, ?, 512]> linear_52_cast_fp16 = linear(bias = blocks_5_attn_value_bias_to_fp16, weight = blocks_5_attn_value_weight_to_fp16, x = input_123_cast_fp16)[name = tensor<string, []>("linear_52_cast_fp16")];
            tensor<int32, [3]> var_756_shape_cast_fp16 = shape(x = linear_50_cast_fp16)[name = tensor<string, []>("op_756_shape_cast_fp16")];
            tensor<int32, []> gather_37_axis_0 = const()[name = tensor<string, []>("gather_37_axis_0"), val = tensor<int32, []>(0)];
            tensor<int32, []> gather_37_batch_dims_0 = const()[name = tensor<string, []>("gather_37_batch_dims_0"), val = tensor<int32, []>(0)];
            tensor<bool, []> gather_37_validate_indices_0 = const()[name = tensor<string, []>("gather_37_validate_indices_0"), val = tensor<bool, []>(false)];
            tensor<string, []> var_756_shape_cast_fp16_to_uint16_dtype_0 = const()[name = tensor<string, []>("op_756_shape_cast_fp16_to_uint16_dtype_0"), val = tensor<string, []>("uint16")];
            tensor<uint16, []> gather_37_indices_0_to_uint16 = const()[name = tensor<string, []>("gather_37_indices_0_to_uint16"), val = tensor<uint16, []>(1)];
            tensor<uint16, [3]> var_756_shape_cast_fp16_to_uint16 = cast(dtype = var_756_shape_cast_fp16_to_uint16_dtype_0, x = var_756_shape_cast_fp16)[name = tensor<string, []>("cast_52")];
            tensor<uint16, []> gather_37_cast_uint16 = gather(axis = gather_37_axis_0, batch_dims = gather_37_batch_dims_0, indices = gather_37_indices_0_to_uint16, validate_indices = gather_37_validate_indices_0, x = var_756_shape_cast_fp16_to_uint16)[name = tensor<string, []>("gather_37_cast_uint16")];
            tensor<string, []> gather_37_cast_uint16_to_int32_dtype_0 = const()[name = tensor<string, []>("gather_37_cast_uint16_to_int32_dtype_0"), val = tensor<string, []>("int32")];
            tensor<int32, [4]> concat_41x = const()[name = tensor<string, []>("concat_41x"), val = tensor<int32, [4]>([1, -1, 8, 64])];
            tensor<fp16, [1, ?, 8, 64]> var_766_cast_fp16 = reshape(shape = concat_41x, x = linear_50_cast_fp16)[name = tensor<string, []>("op_766_cast_fp16")];
            tensor<fp16, [1, 1, 1, 1]> const_26_to_fp16 = const()[name = tensor<string, []>("const_26_to_fp16"), val = tensor<fp16, [1, 1, 1, 1]>([[[[0x1.6ap-2]]]])];
            tensor<fp16, [1, ?, 8, 64]> q_43_cast_fp16 = mul(x = var_766_cast_fp16, y = const_26_to_fp16)[name = tensor<string, []>("q_43_cast_fp16")];
            tensor<int32, [4]> concat_42x = const()[name = tensor<string, []>("concat_42x"), val = tensor<int32, [4]>([1, -1, 8, 64])];
            tensor<fp16, [1, ?, 8, 64]> var_772_cast_fp16 = reshape(shape = concat_42x, x = linear_51_cast_fp16)[name = tensor<string, []>("op_772_cast_fp16")];
            tensor<fp16, [1, 1, 1, 1]> const_27_to_fp16 = const()[name = tensor<string, []>("const_27_to_fp16"), val = tensor<fp16, [1, 1, 1, 1]>([[[[0x1.6ap-2]]]])];
            tensor<fp16, [1, ?, 8, 64]> k_43_cast_fp16 = mul(x = var_772_cast_fp16, y = const_27_to_fp16)[name = tensor<string, []>("k_43_cast_fp16")];
            tensor<int32, [4]> concat_43x = const()[name = tensor<string, []>("concat_43x"), val = tensor<int32, [4]>([1, -1, 8, 64])];
            tensor<fp16, [1, ?, 8, 64]> var_777_cast_fp16 = reshape(shape = concat_43x, x = linear_52_cast_fp16)[name = tensor<string, []>("op_777_cast_fp16")];
            tensor<int32, [4]> var_778 = const()[name = tensor<string, []>("op_778"), val = tensor<int32, [4]>([0, 2, 1, 3])];
            tensor<bool, []> qk_transpose_x_0 = const()[name = tensor<string, []>("qk_transpose_x_0"), val = tensor<bool, []>(false)];
            tensor<bool, []> qk_transpose_y_0 = const()[name = tensor<string, []>("qk_transpose_y_0"), val = tensor<bool, []>(false)];
            tensor<int32, [4]> transpose_69_perm_0 = const()[name = tensor<string, []>("transpose_69_perm_0"), val = tensor<int32, [4]>([0, 2, -3, -1])];
            tensor<int32, [4]> transpose_70_perm_0 = const()[name = tensor<string, []>("transpose_70_perm_0"), val = tensor<int32, [4]>([0, 2, -1, -3])];
            tensor<fp16, [1, 8, 64, ?]> transpose_70 = transpose(perm = transpose_70_perm_0, x = k_43_cast_fp16)[name = tensor<string, []>("transpose_78")];
            tensor<fp16, [1, 8, ?, 64]> transpose_69 = transpose(perm = transpose_69_perm_0, x = q_43_cast_fp16)[name = tensor<string, []>("transpose_79")];
            tensor<fp16, [1, 8, ?, ?]> qk_cast_fp16 = matmul(transpose_x = qk_transpose_x_0, transpose_y = qk_transpose_y_0, x = transpose_69, y = transpose_70)[name = tensor<string, []>("qk_cast_fp16")];
            tensor<int32, []> concat_44_values1_0 = const()[name = tensor<string, []>("concat_44_values1_0"), val = tensor<int32, []>(448)];
            tensor<int32, []> concat_44_axis_0 = const()[name = tensor<string, []>("concat_44_axis_0"), val = tensor<int32, []>(0)];
            tensor<bool, []> concat_44_interleave_0 = const()[name = tensor<string, []>("concat_44_interleave_0"), val = tensor<bool, []>(false)];
            tensor<int32, []> gather_37_cast_uint16_to_int32 = cast(dtype = gather_37_cast_uint16_to_int32_dtype_0, x = gather_37_cast_uint16)[name = tensor<string, []>("cast_51")];
            tensor<int32, [2]> concat_44 = concat(axis = concat_44_axis_0, interleave = concat_44_interleave_0, values = (gather_37_cast_uint16_to_int32, concat_44_values1_0))[name = tensor<string, []>("concat_44")];
            tensor<int32, [2]> var_781_begin_0 = const()[name = tensor<string, []>("op_781_begin_0"), val = tensor<int32, [2]>([0, 0])];
            tensor<bool, [2]> var_781_end_mask_0 = const()[name = tensor<string, []>("op_781_end_mask_0"), val = tensor<bool, [2]>([false, true])];
            tensor<fp16, [?, 448]> var_781_cast_fp16 = slice_by_index(begin = var_781_begin_0, end = concat_44, end_mask = var_781_end_mask_0, x = mask_to_fp16)[name = tensor<string, []>("op_781_cast_fp16")];
            tensor<int32, []> concat_45_values0_0 = const()[name = tensor<string, []>("concat_45_values0_0"), val = tensor<int32, []>(0)];
            tensor<int32, []> concat_45_axis_0 = const()[name = tensor<string, []>("concat_45_axis_0"), val = tensor<int32, []>(0)];
            tensor<bool, []> concat_45_interleave_0 = const()[name = tensor<string, []>("concat_45_interleave_0"), val = tensor<bool, []>(false)];
            tensor<int32, [2]> concat_45 = concat(axis = concat_45_axis_0, interleave = concat_45_interleave_0, values = (concat_45_values0_0, gather_37_cast_uint16_to_int32))[name = tensor<string, []>("concat_45")];
            tensor<int32, [2]> var_782_begin_0 = const()[name = tensor<string, []>("op_782_begin_0"), val = tensor<int32, [2]>([0, 0])];
            tensor<bool, [2]> var_782_end_mask_0 = const()[name = tensor<string, []>("op_782_end_mask_0"), val = tensor<bool, [2]>([true, false])];
            tensor<fp16, [?, ?]> var_782_cast_fp16 = slice_by_index(begin = var_782_begin_0, end = concat_45, end_mask = var_782_end_mask_0, x = var_781_cast_fp16)[name = tensor<string, []>("op_782_cast_fp16")];
            tensor<fp16, [1, 8, ?, ?]> input_125_cast_fp16 = add(x = qk_cast_fp16, y = var_782_cast_fp16)[name = tensor<string, []>("input_125_cast_fp16")];
            tensor<fp16, [1, 8, ?, ?]> w_21_cast_fp16 = softmax(axis = var_730, x = input_125_cast_fp16)[name = tensor<string, []>("w_21_cast_fp16")];
            tensor<bool, []> var_785_transpose_x_0 = const()[name = tensor<string, []>("op_785_transpose_x_0"), val = tensor<bool, []>(false)];
            tensor<bool, []> var_785_transpose_y_0 = const()[name = tensor<string, []>("op_785_transpose_y_0"), val = tensor<bool, []>(false)];
            tensor<fp16, [1, 8, ?, 64]> v_43_cast_fp16 = transpose(perm = var_778, x = var_777_cast_fp16)[name = tensor<string, []>("transpose_80")];
            tensor<fp16, [1, 8, ?, 64]> var_785_cast_fp16 = matmul(transpose_x = var_785_transpose_x_0, transpose_y = var_785_transpose_y_0, x = w_21_cast_fp16, y = v_43_cast_fp16)[name = tensor<string, []>("op_785_cast_fp16")];
            tensor<int32, [4]> var_786 = const()[name = tensor<string, []>("op_786"), val = tensor<int32, [4]>([0, 2, 1, 3])];
            tensor<int32, [3]> concat_46x = const()[name = tensor<string, []>("concat_46x"), val = tensor<int32, [3]>([1, -1, 512])];
            tensor<fp16, [1, ?, 8, 64]> var_787_cast_fp16 = transpose(perm = var_786, x = var_785_cast_fp16)[name = tensor<string, []>("transpose_77")];
            tensor<fp16, [1, ?, 512]> input_127_cast_fp16 = reshape(shape = concat_46x, x = var_787_cast_fp16)[name = tensor<string, []>("input_127_cast_fp16")];
            tensor<fp16, [512, 512]> blocks_5_attn_out_weight_to_fp16 = const()[name = tensor<string, []>("blocks_5_attn_out_weight_to_fp16"), val = tensor<fp16, [512, 512]>(BLOBFILE(path = tensor<string, []>("@model_path/weights/weight.bin"), offset = tensor<uint64, []>(97586432)))];
            tensor<fp16, [512]> blocks_5_attn_out_bias_to_fp16 = const()[name = tensor<string, []>("blocks_5_attn_out_bias_to_fp16"), val = tensor<fp16, [512]>(BLOBFILE(path = tensor<string, []>("@model_path/weights/weight.bin"), offset = tensor<uint64, []>(98110784)))];
            tensor<fp16, [1, ?, 512]> linear_53_cast_fp16 = linear(bias = blocks_5_attn_out_bias_to_fp16, weight = blocks_5_attn_out_weight_to_fp16, x = input_127_cast_fp16)[name = tensor<string, []>("linear_53_cast_fp16")];
            tensor<fp16, [1, ?, 512]> input_129_cast_fp16 = add(x = input_121_cast_fp16, y = linear_53_cast_fp16)[name = tensor<string, []>("input_129_cast_fp16")];
            tensor<int32, [1]> input_131_axes_0 = const()[name = tensor<string, []>("input_131_axes_0"), val = tensor<int32, [1]>([-1])];
            tensor<fp16, [512]> blocks_5_cross_attn_ln_weight_to_fp16 = const()[name = tensor<string, []>("blocks_5_cross_attn_ln_weight_to_fp16"), val = tensor<fp16, [512]>(BLOBFILE(path = tensor<string, []>("@model_path/weights/weight.bin"), offset = tensor<uint64, []>(98111872)))];
            tensor<fp16, [512]> blocks_5_cross_attn_ln_bias_to_fp16 = const()[name = tensor<string, []>("blocks_5_cross_attn_ln_bias_to_fp16"), val = tensor<fp16, [512]>(BLOBFILE(path = tensor<string, []>("@model_path/weights/weight.bin"), offset = tensor<uint64, []>(98112960)))];
            tensor<fp16, [1, ?, 512]> input_131_cast_fp16 = layer_norm(axes = input_131_axes_0, beta = blocks_5_cross_attn_ln_bias_to_fp16, epsilon = var_732_to_fp16, gamma = blocks_5_cross_attn_ln_weight_to_fp16, x = input_129_cast_fp16)[name = tensor<string, []>("input_131_cast_fp16")];
            tensor<fp16, [512, 512]> blocks_5_cross_attn_query_weight_to_fp16 = const()[name = tensor<string, []>("blocks_5_cross_attn_query_weight_to_fp16"), val = tensor<fp16, [512, 512]>(BLOBFILE(path = tensor<string, []>("@model_path/weights/weight.bin"), offset = tensor<uint64, []>(98114048)))];
            tensor<fp16, [512]> blocks_5_cross_attn_query_bias_to_fp16 = const()[name = tensor<string, []>("blocks_5_cross_attn_query_bias_to_fp16"), val = tensor<fp16, [512]>(BLOBFILE(path = tensor<string, []>("@model_path/weights/weight.bin"), offset = tensor<uint64, []>(98638400)))];
            tensor<fp16, [1, ?, 512]> linear_54_cast_fp16 = linear(bias = blocks_5_cross_attn_query_bias_to_fp16, weight = blocks_5_cross_attn_query_weight_to_fp16, x = input_131_cast_fp16)[name = tensor<string, []>("linear_54_cast_fp16")];
            tensor<fp16, [512, 512]> blocks_5_cross_attn_key_weight_to_fp16 = const()[name = tensor<string, []>("blocks_5_cross_attn_key_weight_to_fp16"), val = tensor<fp16, [512, 512]>(BLOBFILE(path = tensor<string, []>("@model_path/weights/weight.bin"), offset = tensor<uint64, []>(98639488)))];
            tensor<fp16, [1, 1500, 512]> linear_55_cast_fp16 = linear(bias = linear_1_bias_0_to_fp16, weight = blocks_5_cross_attn_key_weight_to_fp16, x = encoder_output_embeds)[name = tensor<string, []>("linear_55_cast_fp16")];
            tensor<fp16, [512, 512]> blocks_5_cross_attn_value_weight_to_fp16 = const()[name = tensor<string, []>("blocks_5_cross_attn_value_weight_to_fp16"), val = tensor<fp16, [512, 512]>(BLOBFILE(path = tensor<string, []>("@model_path/weights/weight.bin"), offset = tensor<uint64, []>(99163840)))];
            tensor<fp16, [512]> blocks_5_cross_attn_value_bias_to_fp16 = const()[name = tensor<string, []>("blocks_5_cross_attn_value_bias_to_fp16"), val = tensor<fp16, [512]>(BLOBFILE(path = tensor<string, []>("@model_path/weights/weight.bin"), offset = tensor<uint64, []>(99688192)))];
            tensor<fp16, [1, 1500, 512]> linear_56_cast_fp16 = linear(bias = blocks_5_cross_attn_value_bias_to_fp16, weight = blocks_5_cross_attn_value_weight_to_fp16, x = encoder_output_embeds)[name = tensor<string, []>("linear_56_cast_fp16")];
            tensor<int32, [4]> concat_47x = const()[name = tensor<string, []>("concat_47x"), val = tensor<int32, [4]>([1, -1, 8, 64])];
            tensor<fp16, [1, ?, 8, 64]> var_819_cast_fp16 = reshape(shape = concat_47x, x = linear_54_cast_fp16)[name = tensor<string, []>("op_819_cast_fp16")];
            tensor<fp16, [1, 1, 1, 1]> const_28_to_fp16 = const()[name = tensor<string, []>("const_28_to_fp16"), val = tensor<fp16, [1, 1, 1, 1]>([[[[0x1.6ap-2]]]])];
            tensor<fp16, [1, ?, 8, 64]> q_cast_fp16 = mul(x = var_819_cast_fp16, y = const_28_to_fp16)[name = tensor<string, []>("q_cast_fp16")];
            tensor<int32, [4]> var_824 = const()[name = tensor<string, []>("op_824"), val = tensor<int32, [4]>([1, 1500, 8, 64])];
            tensor<fp16, [1, 1500, 8, 64]> var_825_cast_fp16 = reshape(shape = var_824, x = linear_55_cast_fp16)[name = tensor<string, []>("op_825_cast_fp16")];
            tensor<fp16, [1, 1, 1, 1]> const_29_to_fp16 = const()[name = tensor<string, []>("const_29_to_fp16"), val = tensor<fp16, [1, 1, 1, 1]>([[[[0x1.6ap-2]]]])];
            tensor<fp16, [1, 1500, 8, 64]> k_cast_fp16 = mul(x = var_825_cast_fp16, y = const_29_to_fp16)[name = tensor<string, []>("k_cast_fp16")];
            tensor<int32, [4]> var_829 = const()[name = tensor<string, []>("op_829"), val = tensor<int32, [4]>([1, 1500, 8, 64])];
            tensor<fp16, [1, 1500, 8, 64]> var_830_cast_fp16 = reshape(shape = var_829, x = linear_56_cast_fp16)[name = tensor<string, []>("op_830_cast_fp16")];
            tensor<int32, [4]> var_831 = const()[name = tensor<string, []>("op_831"), val = tensor<int32, [4]>([0, 2, 1, 3])];
            tensor<bool, []> input_133_transpose_x_0 = const()[name = tensor<string, []>("input_133_transpose_x_0"), val = tensor<bool, []>(false)];
            tensor<bool, []> input_133_transpose_y_0 = const()[name = tensor<string, []>("input_133_transpose_y_0"), val = tensor<bool, []>(false)];
            tensor<int32, [4]> transpose_71_perm_0 = const()[name = tensor<string, []>("transpose_71_perm_0"), val = tensor<int32, [4]>([0, 2, -3, -1])];
            tensor<int32, [4]> transpose_72_perm_0 = const()[name = tensor<string, []>("transpose_72_perm_0"), val = tensor<int32, [4]>([0, 2, -1, -3])];
            tensor<fp16, [1, 8, 64, 1500]> transpose_72 = transpose(perm = transpose_72_perm_0, x = k_cast_fp16)[name = tensor<string, []>("transpose_74")];
            tensor<fp16, [1, 8, ?, 64]> transpose_71 = transpose(perm = transpose_71_perm_0, x = q_cast_fp16)[name = tensor<string, []>("transpose_75")];
            tensor<fp16, [1, 8, ?, 1500]> input_133_cast_fp16 = matmul(transpose_x = input_133_transpose_x_0, transpose_y = input_133_transpose_y_0, x = transpose_71, y = transpose_72)[name = tensor<string, []>("input_133_cast_fp16")];
            tensor<fp16, [1, 8, ?, 1500]> w_cast_fp16 = softmax(axis = var_730, x = input_133_cast_fp16)[name = tensor<string, []>("w_cast_fp16")];
            tensor<bool, []> var_835_transpose_x_0 = const()[name = tensor<string, []>("op_835_transpose_x_0"), val = tensor<bool, []>(false)];
            tensor<bool, []> var_835_transpose_y_0 = const()[name = tensor<string, []>("op_835_transpose_y_0"), val = tensor<bool, []>(false)];
            tensor<fp16, [1, 8, 1500, 64]> v_cast_fp16 = transpose(perm = var_831, x = var_830_cast_fp16)[name = tensor<string, []>("transpose_76")];
            tensor<fp16, [1, 8, ?, 64]> var_835_cast_fp16 = matmul(transpose_x = var_835_transpose_x_0, transpose_y = var_835_transpose_y_0, x = w_cast_fp16, y = v_cast_fp16)[name = tensor<string, []>("op_835_cast_fp16")];
            tensor<int32, [4]> var_836 = const()[name = tensor<string, []>("op_836"), val = tensor<int32, [4]>([0, 2, 1, 3])];
            tensor<int32, [3]> concat_48x = const()[name = tensor<string, []>("concat_48x"), val = tensor<int32, [3]>([1, -1, 512])];
            tensor<fp16, [1, ?, 8, 64]> var_837_cast_fp16 = transpose(perm = var_836, x = var_835_cast_fp16)[name = tensor<string, []>("transpose_73")];
            tensor<fp16, [1, ?, 512]> input_135_cast_fp16 = reshape(shape = concat_48x, x = var_837_cast_fp16)[name = tensor<string, []>("input_135_cast_fp16")];
            tensor<fp16, [512, 512]> blocks_5_cross_attn_out_weight_to_fp16 = const()[name = tensor<string, []>("blocks_5_cross_attn_out_weight_to_fp16"), val = tensor<fp16, [512, 512]>(BLOBFILE(path = tensor<string, []>("@model_path/weights/weight.bin"), offset = tensor<uint64, []>(99689280)))];
            tensor<fp16, [512]> blocks_5_cross_attn_out_bias_to_fp16 = const()[name = tensor<string, []>("blocks_5_cross_attn_out_bias_to_fp16"), val = tensor<fp16, [512]>(BLOBFILE(path = tensor<string, []>("@model_path/weights/weight.bin"), offset = tensor<uint64, []>(100213632)))];
            tensor<fp16, [1, ?, 512]> linear_57_cast_fp16 = linear(bias = blocks_5_cross_attn_out_bias_to_fp16, weight = blocks_5_cross_attn_out_weight_to_fp16, x = input_135_cast_fp16)[name = tensor<string, []>("linear_57_cast_fp16")];
            tensor<fp16, [1, ?, 512]> input_137_cast_fp16 = add(x = input_129_cast_fp16, y = linear_57_cast_fp16)[name = tensor<string, []>("input_137_cast_fp16")];
            tensor<int32, [1]> input_139_axes_0 = const()[name = tensor<string, []>("input_139_axes_0"), val = tensor<int32, [1]>([-1])];
            tensor<fp16, [512]> blocks_5_mlp_ln_weight_to_fp16 = const()[name = tensor<string, []>("blocks_5_mlp_ln_weight_to_fp16"), val = tensor<fp16, [512]>(BLOBFILE(path = tensor<string, []>("@model_path/weights/weight.bin"), offset = tensor<uint64, []>(100214720)))];
            tensor<fp16, [512]> blocks_5_mlp_ln_bias_to_fp16 = const()[name = tensor<string, []>("blocks_5_mlp_ln_bias_to_fp16"), val = tensor<fp16, [512]>(BLOBFILE(path = tensor<string, []>("@model_path/weights/weight.bin"), offset = tensor<uint64, []>(100215808)))];
            tensor<fp16, [1, ?, 512]> input_139_cast_fp16 = layer_norm(axes = input_139_axes_0, beta = blocks_5_mlp_ln_bias_to_fp16, epsilon = var_732_to_fp16, gamma = blocks_5_mlp_ln_weight_to_fp16, x = input_137_cast_fp16)[name = tensor<string, []>("input_139_cast_fp16")];
            tensor<fp16, [2048, 512]> blocks_5_mlp_0_weight_to_fp16 = const()[name = tensor<string, []>("blocks_5_mlp_0_weight_to_fp16"), val = tensor<fp16, [2048, 512]>(BLOBFILE(path = tensor<string, []>("@model_path/weights/weight.bin"), offset = tensor<uint64, []>(100216896)))];
            tensor<fp16, [2048]> blocks_5_mlp_0_bias_to_fp16 = const()[name = tensor<string, []>("blocks_5_mlp_0_bias_to_fp16"), val = tensor<fp16, [2048]>(BLOBFILE(path = tensor<string, []>("@model_path/weights/weight.bin"), offset = tensor<uint64, []>(102314112)))];
            tensor<fp16, [1, ?, 2048]> linear_58_cast_fp16 = linear(bias = blocks_5_mlp_0_bias_to_fp16, weight = blocks_5_mlp_0_weight_to_fp16, x = input_139_cast_fp16)[name = tensor<string, []>("linear_58_cast_fp16")];
            tensor<string, []> input_143_mode_0 = const()[name = tensor<string, []>("input_143_mode_0"), val = tensor<string, []>("EXACT")];
            tensor<fp16, [1, ?, 2048]> input_143_cast_fp16 = gelu(mode = input_143_mode_0, x = linear_58_cast_fp16)[name = tensor<string, []>("input_143_cast_fp16")];
            tensor<fp16, [512, 2048]> blocks_5_mlp_2_weight_to_fp16 = const()[name = tensor<string, []>("blocks_5_mlp_2_weight_to_fp16"), val = tensor<fp16, [512, 2048]>(BLOBFILE(path = tensor<string, []>("@model_path/weights/weight.bin"), offset = tensor<uint64, []>(102318272)))];
            tensor<fp16, [512]> blocks_5_mlp_2_bias_to_fp16 = const()[name = tensor<string, []>("blocks_5_mlp_2_bias_to_fp16"), val = tensor<fp16, [512]>(BLOBFILE(path = tensor<string, []>("@model_path/weights/weight.bin"), offset = tensor<uint64, []>(104415488)))];
            tensor<fp16, [1, ?, 512]> linear_59_cast_fp16 = linear(bias = blocks_5_mlp_2_bias_to_fp16, weight = blocks_5_mlp_2_weight_to_fp16, x = input_143_cast_fp16)[name = tensor<string, []>("linear_59_cast_fp16")];
            tensor<fp16, [1, ?, 512]> input_cast_fp16 = add(x = input_137_cast_fp16, y = linear_59_cast_fp16)[name = tensor<string, []>("input_cast_fp16")];
            tensor<int32, [1]> x_axes_0 = const()[name = tensor<string, []>("x_axes_0"), val = tensor<int32, [1]>([-1])];
            tensor<fp16, [512]> ln_weight_to_fp16 = const()[name = tensor<string, []>("ln_weight_to_fp16"), val = tensor<fp16, [512]>(BLOBFILE(path = tensor<string, []>("@model_path/weights/weight.bin"), offset = tensor<uint64, []>(104416576)))];
            tensor<fp16, [512]> ln_bias_to_fp16 = const()[name = tensor<string, []>("ln_bias_to_fp16"), val = tensor<fp16, [512]>(BLOBFILE(path = tensor<string, []>("@model_path/weights/weight.bin"), offset = tensor<uint64, []>(104417664)))];
            tensor<fp16, []> var_858_to_fp16 = const()[name = tensor<string, []>("op_858_to_fp16"), val = tensor<fp16, []>(0x1.5p-17)];
            tensor<fp16, [1, ?, 512]> x_cast_fp16 = layer_norm(axes = x_axes_0, beta = ln_bias_to_fp16, epsilon = var_858_to_fp16, gamma = ln_weight_to_fp16, x = input_cast_fp16)[name = tensor<string, []>("x_cast_fp16")];
            tensor<fp16, [51865]> var_865_bias_0_to_fp16 = const()[name = tensor<string, []>("op_865_bias_0_to_fp16"), val = tensor<fp16, [51865]>(BLOBFILE(path = tensor<string, []>("@model_path/weights/weight.bin"), offset = tensor<uint64, []>(104418752)))];
            tensor<fp16, [1, ?, 51865]> logits = linear(bias = var_865_bias_0_to_fp16, weight = token_embedding_weight_to_fp16, x = x_cast_fp16)[name = tensor<string, []>("op_865_cast_fp16")];
        } -> (logits);
}